<?xml version="1.0"?>
<net name="paddle-onnx" version="11">
	<layers>
		<layer id="0" name="image" type="Parameter" version="opset1">
			<data shape="1,3,270,320" element_type="f32" />
			<output>
				<port id="0" precision="FP32" names="image">
					<dim>1</dim>
					<dim>3</dim>
					<dim>270</dim>
					<dim>320</dim>
					<rt_info>
						<attribute name="layout" version="0" layout="[N,C,H,W]" />
					</rt_info>
				</port>
			</output>
		</layer>
		<layer id="1" name="Constant_39626" type="Const" version="opset1">
			<data element_type="i64" shape="2" offset="0" size="16" />
			<output>
				<port id="0" precision="I64">
					<dim>2</dim>
				</port>
			</output>
		</layer>
		<layer id="2" name="Constant_39627" type="Const" version="opset1">
			<data element_type="f32" shape="2" offset="16" size="8" />
			<output>
				<port id="0" precision="FP32">
					<dim>2</dim>
				</port>
			</output>
		</layer>
		<layer id="3" name="Constant_39628" type="Const" version="opset1">
			<data element_type="i64" shape="2" offset="24" size="16" />
			<output>
				<port id="0" precision="I64">
					<dim>2</dim>
				</port>
			</output>
		</layer>
		<layer id="4" name="Interpolate_39629" type="Interpolate" version="opset4">
			<data mode="cubic" shape_calculation_mode="sizes" coordinate_transformation_mode="half_pixel" nearest_mode="round_prefer_floor" antialias="false" pads_begin="0, 0, 0, 0" pads_end="0, 0, 0, 0" cube_coeff="-0.75" />
			<input>
				<port id="0" precision="FP32">
					<dim>1</dim>
					<dim>3</dim>
					<dim>270</dim>
					<dim>320</dim>
				</port>
				<port id="1" precision="I64">
					<dim>2</dim>
				</port>
				<port id="2" precision="FP32">
					<dim>2</dim>
				</port>
				<port id="3" precision="I64">
					<dim>2</dim>
				</port>
			</input>
			<output>
				<port id="4" precision="FP32">
					<dim>1</dim>
					<dim>3</dim>
					<dim>320</dim>
					<dim>320</dim>
				</port>
			</output>
		</layer>
		<layer id="5" name="Constant_39635" type="Const" version="opset1">
			<data element_type="f32" shape="1, 3, 1, 1" offset="40" size="12" />
			<output>
				<port id="0" precision="FP32">
					<dim>1</dim>
					<dim>3</dim>
					<dim>1</dim>
					<dim>1</dim>
				</port>
			</output>
		</layer>
		<layer id="6" name="Subtract_39636" type="Subtract" version="opset1">
			<data auto_broadcast="numpy" />
			<rt_info>
				<attribute name="preprocessing" version="0" />
			</rt_info>
			<input>
				<port id="0" precision="FP32">
					<dim>1</dim>
					<dim>3</dim>
					<dim>320</dim>
					<dim>320</dim>
				</port>
				<port id="1" precision="FP32">
					<dim>1</dim>
					<dim>3</dim>
					<dim>1</dim>
					<dim>1</dim>
				</port>
			</input>
			<output>
				<port id="2" precision="FP32">
					<dim>1</dim>
					<dim>3</dim>
					<dim>320</dim>
					<dim>320</dim>
				</port>
			</output>
		</layer>
		<layer id="7" name="Constant_39637" type="Const" version="opset1">
			<data element_type="f32" shape="1, 3, 1, 1" offset="52" size="12" />
			<output>
				<port id="0" precision="FP32">
					<dim>1</dim>
					<dim>3</dim>
					<dim>1</dim>
					<dim>1</dim>
				</port>
			</output>
		</layer>
		<layer id="8" name="Divide_39638" type="Divide" version="opset1">
			<data auto_broadcast="numpy" m_pythondiv="true" />
			<rt_info>
				<attribute name="preprocessing" version="0" />
			</rt_info>
			<input>
				<port id="0" precision="FP32">
					<dim>1</dim>
					<dim>3</dim>
					<dim>320</dim>
					<dim>320</dim>
				</port>
				<port id="1" precision="FP32">
					<dim>1</dim>
					<dim>3</dim>
					<dim>1</dim>
					<dim>1</dim>
				</port>
			</input>
			<output>
				<port id="2" precision="FP32">
					<dim>1</dim>
					<dim>3</dim>
					<dim>320</dim>
					<dim>320</dim>
				</port>
			</output>
		</layer>
		<layer id="9" name="3257" type="Const" version="opset1">
			<data element_type="f32" shape="8, 3, 3, 3" offset="64" size="864" />
			<output>
				<port id="0" precision="FP32" names="3257">
					<dim>8</dim>
					<dim>3</dim>
					<dim>3</dim>
					<dim>3</dim>
				</port>
			</output>
		</layer>
		<layer id="10" name="Convolution_216" type="Convolution" version="opset1">
			<data strides="2, 2" dilations="1, 1" pads_begin="1, 1" pads_end="1, 1" auto_pad="explicit" />
			<input>
				<port id="0" precision="FP32">
					<dim>1</dim>
					<dim>3</dim>
					<dim>320</dim>
					<dim>320</dim>
				</port>
				<port id="1" precision="FP32">
					<dim>8</dim>
					<dim>3</dim>
					<dim>3</dim>
					<dim>3</dim>
				</port>
			</input>
			<output>
				<port id="2" precision="FP32">
					<dim>1</dim>
					<dim>8</dim>
					<dim>160</dim>
					<dim>160</dim>
				</port>
			</output>
		</layer>
		<layer id="11" name="3259" type="Const" version="opset1">
			<data element_type="f32" shape="8" offset="928" size="32" />
			<output>
				<port id="0" precision="FP32" names="3259">
					<dim>8</dim>
				</port>
			</output>
		</layer>
		<layer id="12" name="Constant_219" type="Const" version="opset1">
			<data element_type="i64" shape="1" offset="960" size="8" />
			<output>
				<port id="0" precision="I64">
					<dim>1</dim>
				</port>
			</output>
		</layer>
		<layer id="13" name="ShapeOf_234" type="ShapeOf" version="opset3">
			<data output_type="i64" />
			<input>
				<port id="0" precision="FP32">
					<dim>8</dim>
				</port>
			</input>
			<output>
				<port id="1" precision="I64">
					<dim>1</dim>
				</port>
			</output>
		</layer>
		<layer id="14" name="ShapeOf_217" type="ShapeOf" version="opset3">
			<data output_type="i64" />
			<input>
				<port id="0" precision="FP32">
					<dim>1</dim>
					<dim>8</dim>
					<dim>160</dim>
					<dim>160</dim>
				</port>
			</input>
			<output>
				<port id="1" precision="I64">
					<dim>4</dim>
				</port>
			</output>
		</layer>
		<layer id="15" name="ShapeOf_218" type="ShapeOf" version="opset3">
			<data output_type="i64" />
			<input>
				<port id="0" precision="I64">
					<dim>4</dim>
				</port>
			</input>
			<output>
				<port id="1" precision="I64">
					<dim>1</dim>
				</port>
			</output>
		</layer>
		<layer id="16" name="Constant_220" type="Const" version="opset1">
			<data element_type="i64" shape="1" offset="968" size="8" />
			<output>
				<port id="0" precision="I64">
					<dim>1</dim>
				</port>
			</output>
		</layer>
		<layer id="17" name="Subtract_221" type="Subtract" version="opset1">
			<data auto_broadcast="numpy" />
			<input>
				<port id="0" precision="I64">
					<dim>1</dim>
				</port>
				<port id="1" precision="I64">
					<dim>1</dim>
				</port>
			</input>
			<output>
				<port id="2" precision="I64">
					<dim>1</dim>
				</port>
			</output>
		</layer>
		<layer id="18" name="Broadcast_222" type="Broadcast" version="opset3">
			<data mode="numpy" />
			<input>
				<port id="0" precision="I64">
					<dim>1</dim>
				</port>
				<port id="1" precision="I64">
					<dim>1</dim>
				</port>
			</input>
			<output>
				<port id="2" precision="I64">
					<dim>2</dim>
				</port>
			</output>
		</layer>
		<layer id="19" name="Concat_235" type="Concat" version="opset1">
			<data axis="0" />
			<input>
				<port id="0" precision="I64">
					<dim>1</dim>
				</port>
				<port id="1" precision="I64">
					<dim>1</dim>
				</port>
				<port id="2" precision="I64">
					<dim>2</dim>
				</port>
			</input>
			<output>
				<port id="3" precision="I64">
					<dim>4</dim>
				</port>
			</output>
		</layer>
		<layer id="20" name="Reshape_236" type="Reshape" version="opset1">
			<data special_zero="false" />
			<input>
				<port id="0" precision="FP32">
					<dim>8</dim>
				</port>
				<port id="1" precision="I64">
					<dim>4</dim>
				</port>
			</input>
			<output>
				<port id="2" precision="FP32">
					<dim>1</dim>
					<dim>8</dim>
					<dim>1</dim>
					<dim>1</dim>
				</port>
			</output>
		</layer>
		<layer id="21" name="conv2d_100.tmp_0" type="Add" version="opset1">
			<data auto_broadcast="numpy" />
			<input>
				<port id="0" precision="FP32">
					<dim>1</dim>
					<dim>8</dim>
					<dim>160</dim>
					<dim>160</dim>
				</port>
				<port id="1" precision="FP32">
					<dim>1</dim>
					<dim>8</dim>
					<dim>1</dim>
					<dim>1</dim>
				</port>
			</input>
			<output>
				<port id="2" precision="FP32" names="conv2d_100.tmp_0">
					<dim>1</dim>
					<dim>8</dim>
					<dim>160</dim>
					<dim>160</dim>
				</port>
			</output>
		</layer>
		<layer id="22" name="Constant_0" type="Const" version="opset1">
			<data element_type="f32" shape="" offset="976" size="4" />
			<output>
				<port id="0" precision="FP32" names="Constant_0" />
			</output>
		</layer>
		<layer id="23" name="Constant_2" type="Const" version="opset1">
			<data element_type="f32" shape="" offset="980" size="4" />
			<output>
				<port id="0" precision="FP32" names="Constant_2" />
			</output>
		</layer>
		<layer id="24" name="Constant_1" type="Const" version="opset1">
			<data element_type="f32" shape="" offset="984" size="4" />
			<output>
				<port id="0" precision="FP32" names="Constant_1" />
			</output>
		</layer>
		<layer id="25" name="Add_0" type="Add" version="opset1">
			<data auto_broadcast="numpy" />
			<input>
				<port id="0" precision="FP32">
					<dim>1</dim>
					<dim>8</dim>
					<dim>160</dim>
					<dim>160</dim>
				</port>
				<port id="1" precision="FP32" />
			</input>
			<output>
				<port id="2" precision="FP32" names="Add_0">
					<dim>1</dim>
					<dim>8</dim>
					<dim>160</dim>
					<dim>160</dim>
				</port>
			</output>
		</layer>
		<layer id="26" name="Maximum_265" type="Maximum" version="opset1">
			<data auto_broadcast="numpy" />
			<input>
				<port id="0" precision="FP32" />
				<port id="1" precision="FP32">
					<dim>1</dim>
					<dim>8</dim>
					<dim>160</dim>
					<dim>160</dim>
				</port>
			</input>
			<output>
				<port id="2" precision="FP32">
					<dim>1</dim>
					<dim>8</dim>
					<dim>160</dim>
					<dim>160</dim>
				</port>
			</output>
		</layer>
		<layer id="27" name="Clip_0" type="Minimum" version="opset1">
			<data auto_broadcast="numpy" />
			<input>
				<port id="0" precision="FP32" />
				<port id="1" precision="FP32">
					<dim>1</dim>
					<dim>8</dim>
					<dim>160</dim>
					<dim>160</dim>
				</port>
			</input>
			<output>
				<port id="2" precision="FP32" names="Clip_0">
					<dim>1</dim>
					<dim>8</dim>
					<dim>160</dim>
					<dim>160</dim>
				</port>
			</output>
		</layer>
		<layer id="28" name="Mul_0" type="Multiply" version="opset1">
			<data auto_broadcast="numpy" />
			<input>
				<port id="0" precision="FP32">
					<dim>1</dim>
					<dim>8</dim>
					<dim>160</dim>
					<dim>160</dim>
				</port>
				<port id="1" precision="FP32">
					<dim>1</dim>
					<dim>8</dim>
					<dim>160</dim>
					<dim>160</dim>
				</port>
			</input>
			<output>
				<port id="2" precision="FP32" names="Mul_0">
					<dim>1</dim>
					<dim>8</dim>
					<dim>160</dim>
					<dim>160</dim>
				</port>
			</output>
		</layer>
		<layer id="29" name="hardswish_43.tmp_0" type="Divide" version="opset1">
			<data auto_broadcast="numpy" m_pythondiv="true" />
			<input>
				<port id="0" precision="FP32">
					<dim>1</dim>
					<dim>8</dim>
					<dim>160</dim>
					<dim>160</dim>
				</port>
				<port id="1" precision="FP32" />
			</input>
			<output>
				<port id="2" precision="FP32" names="hardswish_43.tmp_0">
					<dim>1</dim>
					<dim>8</dim>
					<dim>160</dim>
					<dim>160</dim>
				</port>
			</output>
		</layer>
		<layer id="30" name="3261" type="Const" version="opset1">
			<data element_type="f32" shape="8, 1, 3, 3" offset="988" size="288" />
			<output>
				<port id="0" precision="FP32" names="3261">
					<dim>8</dim>
					<dim>1</dim>
					<dim>3</dim>
					<dim>3</dim>
				</port>
			</output>
		</layer>
		<layer id="31" name="Constant_271" type="Const" version="opset1">
			<data element_type="i64" shape="1" offset="1276" size="8" />
			<output>
				<port id="0" precision="I64">
					<dim>1</dim>
				</port>
			</output>
		</layer>
		<layer id="32" name="ShapeOf_272" type="ShapeOf" version="opset3">
			<data output_type="i64" />
			<input>
				<port id="0" precision="FP32">
					<dim>8</dim>
					<dim>1</dim>
					<dim>3</dim>
					<dim>3</dim>
				</port>
			</input>
			<output>
				<port id="1" precision="I64">
					<dim>4</dim>
				</port>
			</output>
		</layer>
		<layer id="33" name="Constant_269" type="Const" version="opset1">
			<data element_type="i64" shape="" offset="1284" size="8" />
			<output>
				<port id="0" precision="I64" />
			</output>
		</layer>
		<layer id="34" name="Constant_270" type="Const" version="opset1">
			<data element_type="i64" shape="2" offset="1292" size="16" />
			<output>
				<port id="0" precision="I64">
					<dim>2</dim>
				</port>
			</output>
		</layer>
		<layer id="35" name="VariadicSplit_273" type="VariadicSplit" version="opset1">
			<input>
				<port id="0" precision="I64">
					<dim>4</dim>
				</port>
				<port id="1" precision="I64" />
				<port id="2" precision="I64">
					<dim>2</dim>
				</port>
			</input>
			<output>
				<port id="3" precision="I64">
					<dim>1</dim>
				</port>
				<port id="4" precision="I64">
					<dim>3</dim>
				</port>
			</output>
		</layer>
		<layer id="36" name="Divide_274" type="Divide" version="opset1">
			<data auto_broadcast="numpy" m_pythondiv="true" />
			<input>
				<port id="0" precision="I64">
					<dim>1</dim>
				</port>
				<port id="1" precision="I64">
					<dim>1</dim>
				</port>
			</input>
			<output>
				<port id="2" precision="I64">
					<dim>1</dim>
				</port>
			</output>
		</layer>
		<layer id="37" name="Concat_275" type="Concat" version="opset1">
			<data axis="0" />
			<input>
				<port id="0" precision="I64">
					<dim>1</dim>
				</port>
				<port id="1" precision="I64">
					<dim>1</dim>
				</port>
				<port id="2" precision="I64">
					<dim>3</dim>
				</port>
			</input>
			<output>
				<port id="3" precision="I64">
					<dim>5</dim>
				</port>
			</output>
		</layer>
		<layer id="38" name="Reshape_276" type="Reshape" version="opset1">
			<data special_zero="false" />
			<input>
				<port id="0" precision="FP32">
					<dim>8</dim>
					<dim>1</dim>
					<dim>3</dim>
					<dim>3</dim>
				</port>
				<port id="1" precision="I64">
					<dim>5</dim>
				</port>
			</input>
			<output>
				<port id="2" precision="FP32">
					<dim>8</dim>
					<dim>1</dim>
					<dim>1</dim>
					<dim>3</dim>
					<dim>3</dim>
				</port>
			</output>
		</layer>
		<layer id="39" name="GroupConvolution_342" type="GroupConvolution" version="opset1">
			<data strides="1, 1" pads_begin="1, 1" pads_end="1, 1" dilations="1, 1" auto_pad="explicit" />
			<input>
				<port id="0" precision="FP32">
					<dim>1</dim>
					<dim>8</dim>
					<dim>160</dim>
					<dim>160</dim>
				</port>
				<port id="1" precision="FP32">
					<dim>8</dim>
					<dim>1</dim>
					<dim>1</dim>
					<dim>3</dim>
					<dim>3</dim>
				</port>
			</input>
			<output>
				<port id="2" precision="FP32">
					<dim>1</dim>
					<dim>8</dim>
					<dim>160</dim>
					<dim>160</dim>
				</port>
			</output>
		</layer>
		<layer id="40" name="3263" type="Const" version="opset1">
			<data element_type="f32" shape="8" offset="1308" size="32" />
			<output>
				<port id="0" precision="FP32" names="3263">
					<dim>8</dim>
				</port>
			</output>
		</layer>
		<layer id="41" name="Constant_345" type="Const" version="opset1">
			<data element_type="i64" shape="1" offset="960" size="8" />
			<output>
				<port id="0" precision="I64">
					<dim>1</dim>
				</port>
			</output>
		</layer>
		<layer id="42" name="ShapeOf_360" type="ShapeOf" version="opset3">
			<data output_type="i64" />
			<input>
				<port id="0" precision="FP32">
					<dim>8</dim>
				</port>
			</input>
			<output>
				<port id="1" precision="I64">
					<dim>1</dim>
				</port>
			</output>
		</layer>
		<layer id="43" name="ShapeOf_343" type="ShapeOf" version="opset3">
			<data output_type="i64" />
			<input>
				<port id="0" precision="FP32">
					<dim>1</dim>
					<dim>8</dim>
					<dim>160</dim>
					<dim>160</dim>
				</port>
			</input>
			<output>
				<port id="1" precision="I64">
					<dim>4</dim>
				</port>
			</output>
		</layer>
		<layer id="44" name="ShapeOf_344" type="ShapeOf" version="opset3">
			<data output_type="i64" />
			<input>
				<port id="0" precision="I64">
					<dim>4</dim>
				</port>
			</input>
			<output>
				<port id="1" precision="I64">
					<dim>1</dim>
				</port>
			</output>
		</layer>
		<layer id="45" name="Constant_346" type="Const" version="opset1">
			<data element_type="i64" shape="1" offset="968" size="8" />
			<output>
				<port id="0" precision="I64">
					<dim>1</dim>
				</port>
			</output>
		</layer>
		<layer id="46" name="Subtract_347" type="Subtract" version="opset1">
			<data auto_broadcast="numpy" />
			<input>
				<port id="0" precision="I64">
					<dim>1</dim>
				</port>
				<port id="1" precision="I64">
					<dim>1</dim>
				</port>
			</input>
			<output>
				<port id="2" precision="I64">
					<dim>1</dim>
				</port>
			</output>
		</layer>
		<layer id="47" name="Broadcast_348" type="Broadcast" version="opset3">
			<data mode="numpy" />
			<input>
				<port id="0" precision="I64">
					<dim>1</dim>
				</port>
				<port id="1" precision="I64">
					<dim>1</dim>
				</port>
			</input>
			<output>
				<port id="2" precision="I64">
					<dim>2</dim>
				</port>
			</output>
		</layer>
		<layer id="48" name="Concat_361" type="Concat" version="opset1">
			<data axis="0" />
			<input>
				<port id="0" precision="I64">
					<dim>1</dim>
				</port>
				<port id="1" precision="I64">
					<dim>1</dim>
				</port>
				<port id="2" precision="I64">
					<dim>2</dim>
				</port>
			</input>
			<output>
				<port id="3" precision="I64">
					<dim>4</dim>
				</port>
			</output>
		</layer>
		<layer id="49" name="Reshape_362" type="Reshape" version="opset1">
			<data special_zero="false" />
			<input>
				<port id="0" precision="FP32">
					<dim>8</dim>
				</port>
				<port id="1" precision="I64">
					<dim>4</dim>
				</port>
			</input>
			<output>
				<port id="2" precision="FP32">
					<dim>1</dim>
					<dim>8</dim>
					<dim>1</dim>
					<dim>1</dim>
				</port>
			</output>
		</layer>
		<layer id="50" name="depthwise_conv2d_0.tmp_0" type="Add" version="opset1">
			<data auto_broadcast="numpy" />
			<input>
				<port id="0" precision="FP32">
					<dim>1</dim>
					<dim>8</dim>
					<dim>160</dim>
					<dim>160</dim>
				</port>
				<port id="1" precision="FP32">
					<dim>1</dim>
					<dim>8</dim>
					<dim>1</dim>
					<dim>1</dim>
				</port>
			</input>
			<output>
				<port id="2" precision="FP32" names="depthwise_conv2d_0.tmp_0">
					<dim>1</dim>
					<dim>8</dim>
					<dim>160</dim>
					<dim>160</dim>
				</port>
			</output>
		</layer>
		<layer id="51" name="Add_1" type="Add" version="opset1">
			<data auto_broadcast="numpy" />
			<input>
				<port id="0" precision="FP32">
					<dim>1</dim>
					<dim>8</dim>
					<dim>160</dim>
					<dim>160</dim>
				</port>
				<port id="1" precision="FP32" />
			</input>
			<output>
				<port id="2" precision="FP32" names="Add_1">
					<dim>1</dim>
					<dim>8</dim>
					<dim>160</dim>
					<dim>160</dim>
				</port>
			</output>
		</layer>
		<layer id="52" name="Maximum_391" type="Maximum" version="opset1">
			<data auto_broadcast="numpy" />
			<input>
				<port id="0" precision="FP32" />
				<port id="1" precision="FP32">
					<dim>1</dim>
					<dim>8</dim>
					<dim>160</dim>
					<dim>160</dim>
				</port>
			</input>
			<output>
				<port id="2" precision="FP32">
					<dim>1</dim>
					<dim>8</dim>
					<dim>160</dim>
					<dim>160</dim>
				</port>
			</output>
		</layer>
		<layer id="53" name="Clip_1" type="Minimum" version="opset1">
			<data auto_broadcast="numpy" />
			<input>
				<port id="0" precision="FP32" />
				<port id="1" precision="FP32">
					<dim>1</dim>
					<dim>8</dim>
					<dim>160</dim>
					<dim>160</dim>
				</port>
			</input>
			<output>
				<port id="2" precision="FP32" names="Clip_1">
					<dim>1</dim>
					<dim>8</dim>
					<dim>160</dim>
					<dim>160</dim>
				</port>
			</output>
		</layer>
		<layer id="54" name="Mul_1" type="Multiply" version="opset1">
			<data auto_broadcast="numpy" />
			<input>
				<port id="0" precision="FP32">
					<dim>1</dim>
					<dim>8</dim>
					<dim>160</dim>
					<dim>160</dim>
				</port>
				<port id="1" precision="FP32">
					<dim>1</dim>
					<dim>8</dim>
					<dim>160</dim>
					<dim>160</dim>
				</port>
			</input>
			<output>
				<port id="2" precision="FP32" names="Mul_1">
					<dim>1</dim>
					<dim>8</dim>
					<dim>160</dim>
					<dim>160</dim>
				</port>
			</output>
		</layer>
		<layer id="55" name="hardswish_44.tmp_0" type="Divide" version="opset1">
			<data auto_broadcast="numpy" m_pythondiv="true" />
			<input>
				<port id="0" precision="FP32">
					<dim>1</dim>
					<dim>8</dim>
					<dim>160</dim>
					<dim>160</dim>
				</port>
				<port id="1" precision="FP32" />
			</input>
			<output>
				<port id="2" precision="FP32" names="hardswish_44.tmp_0">
					<dim>1</dim>
					<dim>8</dim>
					<dim>160</dim>
					<dim>160</dim>
				</port>
			</output>
		</layer>
		<layer id="56" name="3265" type="Const" version="opset1">
			<data element_type="f32" shape="16, 8, 1, 1" offset="1340" size="512" />
			<output>
				<port id="0" precision="FP32" names="3265">
					<dim>16</dim>
					<dim>8</dim>
					<dim>1</dim>
					<dim>1</dim>
				</port>
			</output>
		</layer>
		<layer id="57" name="Convolution_395" type="Convolution" version="opset1">
			<data strides="1, 1" dilations="1, 1" pads_begin="0, 0" pads_end="0, 0" auto_pad="explicit" />
			<input>
				<port id="0" precision="FP32">
					<dim>1</dim>
					<dim>8</dim>
					<dim>160</dim>
					<dim>160</dim>
				</port>
				<port id="1" precision="FP32">
					<dim>16</dim>
					<dim>8</dim>
					<dim>1</dim>
					<dim>1</dim>
				</port>
			</input>
			<output>
				<port id="2" precision="FP32">
					<dim>1</dim>
					<dim>16</dim>
					<dim>160</dim>
					<dim>160</dim>
				</port>
			</output>
		</layer>
		<layer id="58" name="3267" type="Const" version="opset1">
			<data element_type="f32" shape="16" offset="1852" size="64" />
			<output>
				<port id="0" precision="FP32" names="3267">
					<dim>16</dim>
				</port>
			</output>
		</layer>
		<layer id="59" name="Constant_398" type="Const" version="opset1">
			<data element_type="i64" shape="1" offset="960" size="8" />
			<output>
				<port id="0" precision="I64">
					<dim>1</dim>
				</port>
			</output>
		</layer>
		<layer id="60" name="ShapeOf_413" type="ShapeOf" version="opset3">
			<data output_type="i64" />
			<input>
				<port id="0" precision="FP32">
					<dim>16</dim>
				</port>
			</input>
			<output>
				<port id="1" precision="I64">
					<dim>1</dim>
				</port>
			</output>
		</layer>
		<layer id="61" name="ShapeOf_396" type="ShapeOf" version="opset3">
			<data output_type="i64" />
			<input>
				<port id="0" precision="FP32">
					<dim>1</dim>
					<dim>16</dim>
					<dim>160</dim>
					<dim>160</dim>
				</port>
			</input>
			<output>
				<port id="1" precision="I64">
					<dim>4</dim>
				</port>
			</output>
		</layer>
		<layer id="62" name="ShapeOf_397" type="ShapeOf" version="opset3">
			<data output_type="i64" />
			<input>
				<port id="0" precision="I64">
					<dim>4</dim>
				</port>
			</input>
			<output>
				<port id="1" precision="I64">
					<dim>1</dim>
				</port>
			</output>
		</layer>
		<layer id="63" name="Constant_399" type="Const" version="opset1">
			<data element_type="i64" shape="1" offset="968" size="8" />
			<output>
				<port id="0" precision="I64">
					<dim>1</dim>
				</port>
			</output>
		</layer>
		<layer id="64" name="Subtract_400" type="Subtract" version="opset1">
			<data auto_broadcast="numpy" />
			<input>
				<port id="0" precision="I64">
					<dim>1</dim>
				</port>
				<port id="1" precision="I64">
					<dim>1</dim>
				</port>
			</input>
			<output>
				<port id="2" precision="I64">
					<dim>1</dim>
				</port>
			</output>
		</layer>
		<layer id="65" name="Broadcast_401" type="Broadcast" version="opset3">
			<data mode="numpy" />
			<input>
				<port id="0" precision="I64">
					<dim>1</dim>
				</port>
				<port id="1" precision="I64">
					<dim>1</dim>
				</port>
			</input>
			<output>
				<port id="2" precision="I64">
					<dim>2</dim>
				</port>
			</output>
		</layer>
		<layer id="66" name="Concat_414" type="Concat" version="opset1">
			<data axis="0" />
			<input>
				<port id="0" precision="I64">
					<dim>1</dim>
				</port>
				<port id="1" precision="I64">
					<dim>1</dim>
				</port>
				<port id="2" precision="I64">
					<dim>2</dim>
				</port>
			</input>
			<output>
				<port id="3" precision="I64">
					<dim>4</dim>
				</port>
			</output>
		</layer>
		<layer id="67" name="Reshape_415" type="Reshape" version="opset1">
			<data special_zero="false" />
			<input>
				<port id="0" precision="FP32">
					<dim>16</dim>
				</port>
				<port id="1" precision="I64">
					<dim>4</dim>
				</port>
			</input>
			<output>
				<port id="2" precision="FP32">
					<dim>1</dim>
					<dim>16</dim>
					<dim>1</dim>
					<dim>1</dim>
				</port>
			</output>
		</layer>
		<layer id="68" name="conv2d_101.tmp_0" type="Add" version="opset1">
			<data auto_broadcast="numpy" />
			<input>
				<port id="0" precision="FP32">
					<dim>1</dim>
					<dim>16</dim>
					<dim>160</dim>
					<dim>160</dim>
				</port>
				<port id="1" precision="FP32">
					<dim>1</dim>
					<dim>16</dim>
					<dim>1</dim>
					<dim>1</dim>
				</port>
			</input>
			<output>
				<port id="2" precision="FP32" names="conv2d_101.tmp_0">
					<dim>1</dim>
					<dim>16</dim>
					<dim>160</dim>
					<dim>160</dim>
				</port>
			</output>
		</layer>
		<layer id="69" name="Add_2" type="Add" version="opset1">
			<data auto_broadcast="numpy" />
			<input>
				<port id="0" precision="FP32">
					<dim>1</dim>
					<dim>16</dim>
					<dim>160</dim>
					<dim>160</dim>
				</port>
				<port id="1" precision="FP32" />
			</input>
			<output>
				<port id="2" precision="FP32" names="Add_2">
					<dim>1</dim>
					<dim>16</dim>
					<dim>160</dim>
					<dim>160</dim>
				</port>
			</output>
		</layer>
		<layer id="70" name="Maximum_444" type="Maximum" version="opset1">
			<data auto_broadcast="numpy" />
			<input>
				<port id="0" precision="FP32" />
				<port id="1" precision="FP32">
					<dim>1</dim>
					<dim>16</dim>
					<dim>160</dim>
					<dim>160</dim>
				</port>
			</input>
			<output>
				<port id="2" precision="FP32">
					<dim>1</dim>
					<dim>16</dim>
					<dim>160</dim>
					<dim>160</dim>
				</port>
			</output>
		</layer>
		<layer id="71" name="Clip_2" type="Minimum" version="opset1">
			<data auto_broadcast="numpy" />
			<input>
				<port id="0" precision="FP32" />
				<port id="1" precision="FP32">
					<dim>1</dim>
					<dim>16</dim>
					<dim>160</dim>
					<dim>160</dim>
				</port>
			</input>
			<output>
				<port id="2" precision="FP32" names="Clip_2">
					<dim>1</dim>
					<dim>16</dim>
					<dim>160</dim>
					<dim>160</dim>
				</port>
			</output>
		</layer>
		<layer id="72" name="Mul_2" type="Multiply" version="opset1">
			<data auto_broadcast="numpy" />
			<input>
				<port id="0" precision="FP32">
					<dim>1</dim>
					<dim>16</dim>
					<dim>160</dim>
					<dim>160</dim>
				</port>
				<port id="1" precision="FP32">
					<dim>1</dim>
					<dim>16</dim>
					<dim>160</dim>
					<dim>160</dim>
				</port>
			</input>
			<output>
				<port id="2" precision="FP32" names="Mul_2">
					<dim>1</dim>
					<dim>16</dim>
					<dim>160</dim>
					<dim>160</dim>
				</port>
			</output>
		</layer>
		<layer id="73" name="hardswish_45.tmp_0" type="Divide" version="opset1">
			<data auto_broadcast="numpy" m_pythondiv="true" />
			<input>
				<port id="0" precision="FP32">
					<dim>1</dim>
					<dim>16</dim>
					<dim>160</dim>
					<dim>160</dim>
				</port>
				<port id="1" precision="FP32" />
			</input>
			<output>
				<port id="2" precision="FP32" names="hardswish_45.tmp_0">
					<dim>1</dim>
					<dim>16</dim>
					<dim>160</dim>
					<dim>160</dim>
				</port>
			</output>
		</layer>
		<layer id="74" name="3269" type="Const" version="opset1">
			<data element_type="f32" shape="16, 1, 3, 3" offset="1916" size="576" />
			<output>
				<port id="0" precision="FP32" names="3269">
					<dim>16</dim>
					<dim>1</dim>
					<dim>3</dim>
					<dim>3</dim>
				</port>
			</output>
		</layer>
		<layer id="75" name="Constant_450" type="Const" version="opset1">
			<data element_type="i64" shape="1" offset="2492" size="8" />
			<output>
				<port id="0" precision="I64">
					<dim>1</dim>
				</port>
			</output>
		</layer>
		<layer id="76" name="ShapeOf_451" type="ShapeOf" version="opset3">
			<data output_type="i64" />
			<input>
				<port id="0" precision="FP32">
					<dim>16</dim>
					<dim>1</dim>
					<dim>3</dim>
					<dim>3</dim>
				</port>
			</input>
			<output>
				<port id="1" precision="I64">
					<dim>4</dim>
				</port>
			</output>
		</layer>
		<layer id="77" name="Constant_448" type="Const" version="opset1">
			<data element_type="i64" shape="" offset="1284" size="8" />
			<output>
				<port id="0" precision="I64" />
			</output>
		</layer>
		<layer id="78" name="Constant_449" type="Const" version="opset1">
			<data element_type="i64" shape="2" offset="1292" size="16" />
			<output>
				<port id="0" precision="I64">
					<dim>2</dim>
				</port>
			</output>
		</layer>
		<layer id="79" name="VariadicSplit_452" type="VariadicSplit" version="opset1">
			<input>
				<port id="0" precision="I64">
					<dim>4</dim>
				</port>
				<port id="1" precision="I64" />
				<port id="2" precision="I64">
					<dim>2</dim>
				</port>
			</input>
			<output>
				<port id="3" precision="I64">
					<dim>1</dim>
				</port>
				<port id="4" precision="I64">
					<dim>3</dim>
				</port>
			</output>
		</layer>
		<layer id="80" name="Divide_453" type="Divide" version="opset1">
			<data auto_broadcast="numpy" m_pythondiv="true" />
			<input>
				<port id="0" precision="I64">
					<dim>1</dim>
				</port>
				<port id="1" precision="I64">
					<dim>1</dim>
				</port>
			</input>
			<output>
				<port id="2" precision="I64">
					<dim>1</dim>
				</port>
			</output>
		</layer>
		<layer id="81" name="Concat_454" type="Concat" version="opset1">
			<data axis="0" />
			<input>
				<port id="0" precision="I64">
					<dim>1</dim>
				</port>
				<port id="1" precision="I64">
					<dim>1</dim>
				</port>
				<port id="2" precision="I64">
					<dim>3</dim>
				</port>
			</input>
			<output>
				<port id="3" precision="I64">
					<dim>5</dim>
				</port>
			</output>
		</layer>
		<layer id="82" name="Reshape_455" type="Reshape" version="opset1">
			<data special_zero="false" />
			<input>
				<port id="0" precision="FP32">
					<dim>16</dim>
					<dim>1</dim>
					<dim>3</dim>
					<dim>3</dim>
				</port>
				<port id="1" precision="I64">
					<dim>5</dim>
				</port>
			</input>
			<output>
				<port id="2" precision="FP32">
					<dim>16</dim>
					<dim>1</dim>
					<dim>1</dim>
					<dim>3</dim>
					<dim>3</dim>
				</port>
			</output>
		</layer>
		<layer id="83" name="GroupConvolution_521" type="GroupConvolution" version="opset1">
			<data strides="2, 2" pads_begin="1, 1" pads_end="1, 1" dilations="1, 1" auto_pad="explicit" />
			<input>
				<port id="0" precision="FP32">
					<dim>1</dim>
					<dim>16</dim>
					<dim>160</dim>
					<dim>160</dim>
				</port>
				<port id="1" precision="FP32">
					<dim>16</dim>
					<dim>1</dim>
					<dim>1</dim>
					<dim>3</dim>
					<dim>3</dim>
				</port>
			</input>
			<output>
				<port id="2" precision="FP32">
					<dim>1</dim>
					<dim>16</dim>
					<dim>80</dim>
					<dim>80</dim>
				</port>
			</output>
		</layer>
		<layer id="84" name="3271" type="Const" version="opset1">
			<data element_type="f32" shape="16" offset="2500" size="64" />
			<output>
				<port id="0" precision="FP32" names="3271">
					<dim>16</dim>
				</port>
			</output>
		</layer>
		<layer id="85" name="Constant_524" type="Const" version="opset1">
			<data element_type="i64" shape="1" offset="960" size="8" />
			<output>
				<port id="0" precision="I64">
					<dim>1</dim>
				</port>
			</output>
		</layer>
		<layer id="86" name="ShapeOf_539" type="ShapeOf" version="opset3">
			<data output_type="i64" />
			<input>
				<port id="0" precision="FP32">
					<dim>16</dim>
				</port>
			</input>
			<output>
				<port id="1" precision="I64">
					<dim>1</dim>
				</port>
			</output>
		</layer>
		<layer id="87" name="ShapeOf_522" type="ShapeOf" version="opset3">
			<data output_type="i64" />
			<input>
				<port id="0" precision="FP32">
					<dim>1</dim>
					<dim>16</dim>
					<dim>80</dim>
					<dim>80</dim>
				</port>
			</input>
			<output>
				<port id="1" precision="I64">
					<dim>4</dim>
				</port>
			</output>
		</layer>
		<layer id="88" name="ShapeOf_523" type="ShapeOf" version="opset3">
			<data output_type="i64" />
			<input>
				<port id="0" precision="I64">
					<dim>4</dim>
				</port>
			</input>
			<output>
				<port id="1" precision="I64">
					<dim>1</dim>
				</port>
			</output>
		</layer>
		<layer id="89" name="Constant_525" type="Const" version="opset1">
			<data element_type="i64" shape="1" offset="968" size="8" />
			<output>
				<port id="0" precision="I64">
					<dim>1</dim>
				</port>
			</output>
		</layer>
		<layer id="90" name="Subtract_526" type="Subtract" version="opset1">
			<data auto_broadcast="numpy" />
			<input>
				<port id="0" precision="I64">
					<dim>1</dim>
				</port>
				<port id="1" precision="I64">
					<dim>1</dim>
				</port>
			</input>
			<output>
				<port id="2" precision="I64">
					<dim>1</dim>
				</port>
			</output>
		</layer>
		<layer id="91" name="Broadcast_527" type="Broadcast" version="opset3">
			<data mode="numpy" />
			<input>
				<port id="0" precision="I64">
					<dim>1</dim>
				</port>
				<port id="1" precision="I64">
					<dim>1</dim>
				</port>
			</input>
			<output>
				<port id="2" precision="I64">
					<dim>2</dim>
				</port>
			</output>
		</layer>
		<layer id="92" name="Concat_540" type="Concat" version="opset1">
			<data axis="0" />
			<input>
				<port id="0" precision="I64">
					<dim>1</dim>
				</port>
				<port id="1" precision="I64">
					<dim>1</dim>
				</port>
				<port id="2" precision="I64">
					<dim>2</dim>
				</port>
			</input>
			<output>
				<port id="3" precision="I64">
					<dim>4</dim>
				</port>
			</output>
		</layer>
		<layer id="93" name="Reshape_541" type="Reshape" version="opset1">
			<data special_zero="false" />
			<input>
				<port id="0" precision="FP32">
					<dim>16</dim>
				</port>
				<port id="1" precision="I64">
					<dim>4</dim>
				</port>
			</input>
			<output>
				<port id="2" precision="FP32">
					<dim>1</dim>
					<dim>16</dim>
					<dim>1</dim>
					<dim>1</dim>
				</port>
			</output>
		</layer>
		<layer id="94" name="depthwise_conv2d_1.tmp_0" type="Add" version="opset1">
			<data auto_broadcast="numpy" />
			<input>
				<port id="0" precision="FP32">
					<dim>1</dim>
					<dim>16</dim>
					<dim>80</dim>
					<dim>80</dim>
				</port>
				<port id="1" precision="FP32">
					<dim>1</dim>
					<dim>16</dim>
					<dim>1</dim>
					<dim>1</dim>
				</port>
			</input>
			<output>
				<port id="2" precision="FP32" names="depthwise_conv2d_1.tmp_0">
					<dim>1</dim>
					<dim>16</dim>
					<dim>80</dim>
					<dim>80</dim>
				</port>
			</output>
		</layer>
		<layer id="95" name="Add_3" type="Add" version="opset1">
			<data auto_broadcast="numpy" />
			<input>
				<port id="0" precision="FP32">
					<dim>1</dim>
					<dim>16</dim>
					<dim>80</dim>
					<dim>80</dim>
				</port>
				<port id="1" precision="FP32" />
			</input>
			<output>
				<port id="2" precision="FP32" names="Add_3">
					<dim>1</dim>
					<dim>16</dim>
					<dim>80</dim>
					<dim>80</dim>
				</port>
			</output>
		</layer>
		<layer id="96" name="Maximum_570" type="Maximum" version="opset1">
			<data auto_broadcast="numpy" />
			<input>
				<port id="0" precision="FP32" />
				<port id="1" precision="FP32">
					<dim>1</dim>
					<dim>16</dim>
					<dim>80</dim>
					<dim>80</dim>
				</port>
			</input>
			<output>
				<port id="2" precision="FP32">
					<dim>1</dim>
					<dim>16</dim>
					<dim>80</dim>
					<dim>80</dim>
				</port>
			</output>
		</layer>
		<layer id="97" name="Clip_3" type="Minimum" version="opset1">
			<data auto_broadcast="numpy" />
			<input>
				<port id="0" precision="FP32" />
				<port id="1" precision="FP32">
					<dim>1</dim>
					<dim>16</dim>
					<dim>80</dim>
					<dim>80</dim>
				</port>
			</input>
			<output>
				<port id="2" precision="FP32" names="Clip_3">
					<dim>1</dim>
					<dim>16</dim>
					<dim>80</dim>
					<dim>80</dim>
				</port>
			</output>
		</layer>
		<layer id="98" name="Mul_3" type="Multiply" version="opset1">
			<data auto_broadcast="numpy" />
			<input>
				<port id="0" precision="FP32">
					<dim>1</dim>
					<dim>16</dim>
					<dim>80</dim>
					<dim>80</dim>
				</port>
				<port id="1" precision="FP32">
					<dim>1</dim>
					<dim>16</dim>
					<dim>80</dim>
					<dim>80</dim>
				</port>
			</input>
			<output>
				<port id="2" precision="FP32" names="Mul_3">
					<dim>1</dim>
					<dim>16</dim>
					<dim>80</dim>
					<dim>80</dim>
				</port>
			</output>
		</layer>
		<layer id="99" name="hardswish_46.tmp_0" type="Divide" version="opset1">
			<data auto_broadcast="numpy" m_pythondiv="true" />
			<input>
				<port id="0" precision="FP32">
					<dim>1</dim>
					<dim>16</dim>
					<dim>80</dim>
					<dim>80</dim>
				</port>
				<port id="1" precision="FP32" />
			</input>
			<output>
				<port id="2" precision="FP32" names="hardswish_46.tmp_0">
					<dim>1</dim>
					<dim>16</dim>
					<dim>80</dim>
					<dim>80</dim>
				</port>
			</output>
		</layer>
		<layer id="100" name="3273" type="Const" version="opset1">
			<data element_type="f32" shape="24, 16, 1, 1" offset="2564" size="1536" />
			<output>
				<port id="0" precision="FP32" names="3273">
					<dim>24</dim>
					<dim>16</dim>
					<dim>1</dim>
					<dim>1</dim>
				</port>
			</output>
		</layer>
		<layer id="101" name="Convolution_574" type="Convolution" version="opset1">
			<data strides="1, 1" dilations="1, 1" pads_begin="0, 0" pads_end="0, 0" auto_pad="explicit" />
			<input>
				<port id="0" precision="FP32">
					<dim>1</dim>
					<dim>16</dim>
					<dim>80</dim>
					<dim>80</dim>
				</port>
				<port id="1" precision="FP32">
					<dim>24</dim>
					<dim>16</dim>
					<dim>1</dim>
					<dim>1</dim>
				</port>
			</input>
			<output>
				<port id="2" precision="FP32">
					<dim>1</dim>
					<dim>24</dim>
					<dim>80</dim>
					<dim>80</dim>
				</port>
			</output>
		</layer>
		<layer id="102" name="3275" type="Const" version="opset1">
			<data element_type="f32" shape="24" offset="4100" size="96" />
			<output>
				<port id="0" precision="FP32" names="3275">
					<dim>24</dim>
				</port>
			</output>
		</layer>
		<layer id="103" name="Constant_577" type="Const" version="opset1">
			<data element_type="i64" shape="1" offset="960" size="8" />
			<output>
				<port id="0" precision="I64">
					<dim>1</dim>
				</port>
			</output>
		</layer>
		<layer id="104" name="ShapeOf_592" type="ShapeOf" version="opset3">
			<data output_type="i64" />
			<input>
				<port id="0" precision="FP32">
					<dim>24</dim>
				</port>
			</input>
			<output>
				<port id="1" precision="I64">
					<dim>1</dim>
				</port>
			</output>
		</layer>
		<layer id="105" name="ShapeOf_575" type="ShapeOf" version="opset3">
			<data output_type="i64" />
			<input>
				<port id="0" precision="FP32">
					<dim>1</dim>
					<dim>24</dim>
					<dim>80</dim>
					<dim>80</dim>
				</port>
			</input>
			<output>
				<port id="1" precision="I64">
					<dim>4</dim>
				</port>
			</output>
		</layer>
		<layer id="106" name="ShapeOf_576" type="ShapeOf" version="opset3">
			<data output_type="i64" />
			<input>
				<port id="0" precision="I64">
					<dim>4</dim>
				</port>
			</input>
			<output>
				<port id="1" precision="I64">
					<dim>1</dim>
				</port>
			</output>
		</layer>
		<layer id="107" name="Constant_578" type="Const" version="opset1">
			<data element_type="i64" shape="1" offset="968" size="8" />
			<output>
				<port id="0" precision="I64">
					<dim>1</dim>
				</port>
			</output>
		</layer>
		<layer id="108" name="Subtract_579" type="Subtract" version="opset1">
			<data auto_broadcast="numpy" />
			<input>
				<port id="0" precision="I64">
					<dim>1</dim>
				</port>
				<port id="1" precision="I64">
					<dim>1</dim>
				</port>
			</input>
			<output>
				<port id="2" precision="I64">
					<dim>1</dim>
				</port>
			</output>
		</layer>
		<layer id="109" name="Broadcast_580" type="Broadcast" version="opset3">
			<data mode="numpy" />
			<input>
				<port id="0" precision="I64">
					<dim>1</dim>
				</port>
				<port id="1" precision="I64">
					<dim>1</dim>
				</port>
			</input>
			<output>
				<port id="2" precision="I64">
					<dim>2</dim>
				</port>
			</output>
		</layer>
		<layer id="110" name="Concat_593" type="Concat" version="opset1">
			<data axis="0" />
			<input>
				<port id="0" precision="I64">
					<dim>1</dim>
				</port>
				<port id="1" precision="I64">
					<dim>1</dim>
				</port>
				<port id="2" precision="I64">
					<dim>2</dim>
				</port>
			</input>
			<output>
				<port id="3" precision="I64">
					<dim>4</dim>
				</port>
			</output>
		</layer>
		<layer id="111" name="Reshape_594" type="Reshape" version="opset1">
			<data special_zero="false" />
			<input>
				<port id="0" precision="FP32">
					<dim>24</dim>
				</port>
				<port id="1" precision="I64">
					<dim>4</dim>
				</port>
			</input>
			<output>
				<port id="2" precision="FP32">
					<dim>1</dim>
					<dim>24</dim>
					<dim>1</dim>
					<dim>1</dim>
				</port>
			</output>
		</layer>
		<layer id="112" name="conv2d_102.tmp_0" type="Add" version="opset1">
			<data auto_broadcast="numpy" />
			<input>
				<port id="0" precision="FP32">
					<dim>1</dim>
					<dim>24</dim>
					<dim>80</dim>
					<dim>80</dim>
				</port>
				<port id="1" precision="FP32">
					<dim>1</dim>
					<dim>24</dim>
					<dim>1</dim>
					<dim>1</dim>
				</port>
			</input>
			<output>
				<port id="2" precision="FP32" names="conv2d_102.tmp_0">
					<dim>1</dim>
					<dim>24</dim>
					<dim>80</dim>
					<dim>80</dim>
				</port>
			</output>
		</layer>
		<layer id="113" name="Add_4" type="Add" version="opset1">
			<data auto_broadcast="numpy" />
			<input>
				<port id="0" precision="FP32">
					<dim>1</dim>
					<dim>24</dim>
					<dim>80</dim>
					<dim>80</dim>
				</port>
				<port id="1" precision="FP32" />
			</input>
			<output>
				<port id="2" precision="FP32" names="Add_4">
					<dim>1</dim>
					<dim>24</dim>
					<dim>80</dim>
					<dim>80</dim>
				</port>
			</output>
		</layer>
		<layer id="114" name="Maximum_623" type="Maximum" version="opset1">
			<data auto_broadcast="numpy" />
			<input>
				<port id="0" precision="FP32" />
				<port id="1" precision="FP32">
					<dim>1</dim>
					<dim>24</dim>
					<dim>80</dim>
					<dim>80</dim>
				</port>
			</input>
			<output>
				<port id="2" precision="FP32">
					<dim>1</dim>
					<dim>24</dim>
					<dim>80</dim>
					<dim>80</dim>
				</port>
			</output>
		</layer>
		<layer id="115" name="Clip_4" type="Minimum" version="opset1">
			<data auto_broadcast="numpy" />
			<input>
				<port id="0" precision="FP32" />
				<port id="1" precision="FP32">
					<dim>1</dim>
					<dim>24</dim>
					<dim>80</dim>
					<dim>80</dim>
				</port>
			</input>
			<output>
				<port id="2" precision="FP32" names="Clip_4">
					<dim>1</dim>
					<dim>24</dim>
					<dim>80</dim>
					<dim>80</dim>
				</port>
			</output>
		</layer>
		<layer id="116" name="Mul_4" type="Multiply" version="opset1">
			<data auto_broadcast="numpy" />
			<input>
				<port id="0" precision="FP32">
					<dim>1</dim>
					<dim>24</dim>
					<dim>80</dim>
					<dim>80</dim>
				</port>
				<port id="1" precision="FP32">
					<dim>1</dim>
					<dim>24</dim>
					<dim>80</dim>
					<dim>80</dim>
				</port>
			</input>
			<output>
				<port id="2" precision="FP32" names="Mul_4">
					<dim>1</dim>
					<dim>24</dim>
					<dim>80</dim>
					<dim>80</dim>
				</port>
			</output>
		</layer>
		<layer id="117" name="hardswish_47.tmp_0" type="Divide" version="opset1">
			<data auto_broadcast="numpy" m_pythondiv="true" />
			<input>
				<port id="0" precision="FP32">
					<dim>1</dim>
					<dim>24</dim>
					<dim>80</dim>
					<dim>80</dim>
				</port>
				<port id="1" precision="FP32" />
			</input>
			<output>
				<port id="2" precision="FP32" names="hardswish_47.tmp_0">
					<dim>1</dim>
					<dim>24</dim>
					<dim>80</dim>
					<dim>80</dim>
				</port>
			</output>
		</layer>
		<layer id="118" name="3277" type="Const" version="opset1">
			<data element_type="f32" shape="24, 1, 3, 3" offset="4196" size="864" />
			<output>
				<port id="0" precision="FP32" names="3277">
					<dim>24</dim>
					<dim>1</dim>
					<dim>3</dim>
					<dim>3</dim>
				</port>
			</output>
		</layer>
		<layer id="119" name="Constant_629" type="Const" version="opset1">
			<data element_type="i64" shape="1" offset="5060" size="8" />
			<output>
				<port id="0" precision="I64">
					<dim>1</dim>
				</port>
			</output>
		</layer>
		<layer id="120" name="ShapeOf_630" type="ShapeOf" version="opset3">
			<data output_type="i64" />
			<input>
				<port id="0" precision="FP32">
					<dim>24</dim>
					<dim>1</dim>
					<dim>3</dim>
					<dim>3</dim>
				</port>
			</input>
			<output>
				<port id="1" precision="I64">
					<dim>4</dim>
				</port>
			</output>
		</layer>
		<layer id="121" name="Constant_627" type="Const" version="opset1">
			<data element_type="i64" shape="" offset="1284" size="8" />
			<output>
				<port id="0" precision="I64" />
			</output>
		</layer>
		<layer id="122" name="Constant_628" type="Const" version="opset1">
			<data element_type="i64" shape="2" offset="1292" size="16" />
			<output>
				<port id="0" precision="I64">
					<dim>2</dim>
				</port>
			</output>
		</layer>
		<layer id="123" name="VariadicSplit_631" type="VariadicSplit" version="opset1">
			<input>
				<port id="0" precision="I64">
					<dim>4</dim>
				</port>
				<port id="1" precision="I64" />
				<port id="2" precision="I64">
					<dim>2</dim>
				</port>
			</input>
			<output>
				<port id="3" precision="I64">
					<dim>1</dim>
				</port>
				<port id="4" precision="I64">
					<dim>3</dim>
				</port>
			</output>
		</layer>
		<layer id="124" name="Divide_632" type="Divide" version="opset1">
			<data auto_broadcast="numpy" m_pythondiv="true" />
			<input>
				<port id="0" precision="I64">
					<dim>1</dim>
				</port>
				<port id="1" precision="I64">
					<dim>1</dim>
				</port>
			</input>
			<output>
				<port id="2" precision="I64">
					<dim>1</dim>
				</port>
			</output>
		</layer>
		<layer id="125" name="Concat_633" type="Concat" version="opset1">
			<data axis="0" />
			<input>
				<port id="0" precision="I64">
					<dim>1</dim>
				</port>
				<port id="1" precision="I64">
					<dim>1</dim>
				</port>
				<port id="2" precision="I64">
					<dim>3</dim>
				</port>
			</input>
			<output>
				<port id="3" precision="I64">
					<dim>5</dim>
				</port>
			</output>
		</layer>
		<layer id="126" name="Reshape_634" type="Reshape" version="opset1">
			<data special_zero="false" />
			<input>
				<port id="0" precision="FP32">
					<dim>24</dim>
					<dim>1</dim>
					<dim>3</dim>
					<dim>3</dim>
				</port>
				<port id="1" precision="I64">
					<dim>5</dim>
				</port>
			</input>
			<output>
				<port id="2" precision="FP32">
					<dim>24</dim>
					<dim>1</dim>
					<dim>1</dim>
					<dim>3</dim>
					<dim>3</dim>
				</port>
			</output>
		</layer>
		<layer id="127" name="GroupConvolution_700" type="GroupConvolution" version="opset1">
			<data strides="1, 1" pads_begin="1, 1" pads_end="1, 1" dilations="1, 1" auto_pad="explicit" />
			<input>
				<port id="0" precision="FP32">
					<dim>1</dim>
					<dim>24</dim>
					<dim>80</dim>
					<dim>80</dim>
				</port>
				<port id="1" precision="FP32">
					<dim>24</dim>
					<dim>1</dim>
					<dim>1</dim>
					<dim>3</dim>
					<dim>3</dim>
				</port>
			</input>
			<output>
				<port id="2" precision="FP32">
					<dim>1</dim>
					<dim>24</dim>
					<dim>80</dim>
					<dim>80</dim>
				</port>
			</output>
		</layer>
		<layer id="128" name="3279" type="Const" version="opset1">
			<data element_type="f32" shape="24" offset="5068" size="96" />
			<output>
				<port id="0" precision="FP32" names="3279">
					<dim>24</dim>
				</port>
			</output>
		</layer>
		<layer id="129" name="Constant_703" type="Const" version="opset1">
			<data element_type="i64" shape="1" offset="960" size="8" />
			<output>
				<port id="0" precision="I64">
					<dim>1</dim>
				</port>
			</output>
		</layer>
		<layer id="130" name="ShapeOf_718" type="ShapeOf" version="opset3">
			<data output_type="i64" />
			<input>
				<port id="0" precision="FP32">
					<dim>24</dim>
				</port>
			</input>
			<output>
				<port id="1" precision="I64">
					<dim>1</dim>
				</port>
			</output>
		</layer>
		<layer id="131" name="ShapeOf_701" type="ShapeOf" version="opset3">
			<data output_type="i64" />
			<input>
				<port id="0" precision="FP32">
					<dim>1</dim>
					<dim>24</dim>
					<dim>80</dim>
					<dim>80</dim>
				</port>
			</input>
			<output>
				<port id="1" precision="I64">
					<dim>4</dim>
				</port>
			</output>
		</layer>
		<layer id="132" name="ShapeOf_702" type="ShapeOf" version="opset3">
			<data output_type="i64" />
			<input>
				<port id="0" precision="I64">
					<dim>4</dim>
				</port>
			</input>
			<output>
				<port id="1" precision="I64">
					<dim>1</dim>
				</port>
			</output>
		</layer>
		<layer id="133" name="Constant_704" type="Const" version="opset1">
			<data element_type="i64" shape="1" offset="968" size="8" />
			<output>
				<port id="0" precision="I64">
					<dim>1</dim>
				</port>
			</output>
		</layer>
		<layer id="134" name="Subtract_705" type="Subtract" version="opset1">
			<data auto_broadcast="numpy" />
			<input>
				<port id="0" precision="I64">
					<dim>1</dim>
				</port>
				<port id="1" precision="I64">
					<dim>1</dim>
				</port>
			</input>
			<output>
				<port id="2" precision="I64">
					<dim>1</dim>
				</port>
			</output>
		</layer>
		<layer id="135" name="Broadcast_706" type="Broadcast" version="opset3">
			<data mode="numpy" />
			<input>
				<port id="0" precision="I64">
					<dim>1</dim>
				</port>
				<port id="1" precision="I64">
					<dim>1</dim>
				</port>
			</input>
			<output>
				<port id="2" precision="I64">
					<dim>2</dim>
				</port>
			</output>
		</layer>
		<layer id="136" name="Concat_719" type="Concat" version="opset1">
			<data axis="0" />
			<input>
				<port id="0" precision="I64">
					<dim>1</dim>
				</port>
				<port id="1" precision="I64">
					<dim>1</dim>
				</port>
				<port id="2" precision="I64">
					<dim>2</dim>
				</port>
			</input>
			<output>
				<port id="3" precision="I64">
					<dim>4</dim>
				</port>
			</output>
		</layer>
		<layer id="137" name="Reshape_720" type="Reshape" version="opset1">
			<data special_zero="false" />
			<input>
				<port id="0" precision="FP32">
					<dim>24</dim>
				</port>
				<port id="1" precision="I64">
					<dim>4</dim>
				</port>
			</input>
			<output>
				<port id="2" precision="FP32">
					<dim>1</dim>
					<dim>24</dim>
					<dim>1</dim>
					<dim>1</dim>
				</port>
			</output>
		</layer>
		<layer id="138" name="depthwise_conv2d_2.tmp_0" type="Add" version="opset1">
			<data auto_broadcast="numpy" />
			<input>
				<port id="0" precision="FP32">
					<dim>1</dim>
					<dim>24</dim>
					<dim>80</dim>
					<dim>80</dim>
				</port>
				<port id="1" precision="FP32">
					<dim>1</dim>
					<dim>24</dim>
					<dim>1</dim>
					<dim>1</dim>
				</port>
			</input>
			<output>
				<port id="2" precision="FP32" names="depthwise_conv2d_2.tmp_0">
					<dim>1</dim>
					<dim>24</dim>
					<dim>80</dim>
					<dim>80</dim>
				</port>
			</output>
		</layer>
		<layer id="139" name="Add_5" type="Add" version="opset1">
			<data auto_broadcast="numpy" />
			<input>
				<port id="0" precision="FP32">
					<dim>1</dim>
					<dim>24</dim>
					<dim>80</dim>
					<dim>80</dim>
				</port>
				<port id="1" precision="FP32" />
			</input>
			<output>
				<port id="2" precision="FP32" names="Add_5">
					<dim>1</dim>
					<dim>24</dim>
					<dim>80</dim>
					<dim>80</dim>
				</port>
			</output>
		</layer>
		<layer id="140" name="Maximum_749" type="Maximum" version="opset1">
			<data auto_broadcast="numpy" />
			<input>
				<port id="0" precision="FP32" />
				<port id="1" precision="FP32">
					<dim>1</dim>
					<dim>24</dim>
					<dim>80</dim>
					<dim>80</dim>
				</port>
			</input>
			<output>
				<port id="2" precision="FP32">
					<dim>1</dim>
					<dim>24</dim>
					<dim>80</dim>
					<dim>80</dim>
				</port>
			</output>
		</layer>
		<layer id="141" name="Clip_5" type="Minimum" version="opset1">
			<data auto_broadcast="numpy" />
			<input>
				<port id="0" precision="FP32" />
				<port id="1" precision="FP32">
					<dim>1</dim>
					<dim>24</dim>
					<dim>80</dim>
					<dim>80</dim>
				</port>
			</input>
			<output>
				<port id="2" precision="FP32" names="Clip_5">
					<dim>1</dim>
					<dim>24</dim>
					<dim>80</dim>
					<dim>80</dim>
				</port>
			</output>
		</layer>
		<layer id="142" name="Mul_5" type="Multiply" version="opset1">
			<data auto_broadcast="numpy" />
			<input>
				<port id="0" precision="FP32">
					<dim>1</dim>
					<dim>24</dim>
					<dim>80</dim>
					<dim>80</dim>
				</port>
				<port id="1" precision="FP32">
					<dim>1</dim>
					<dim>24</dim>
					<dim>80</dim>
					<dim>80</dim>
				</port>
			</input>
			<output>
				<port id="2" precision="FP32" names="Mul_5">
					<dim>1</dim>
					<dim>24</dim>
					<dim>80</dim>
					<dim>80</dim>
				</port>
			</output>
		</layer>
		<layer id="143" name="hardswish_48.tmp_0" type="Divide" version="opset1">
			<data auto_broadcast="numpy" m_pythondiv="true" />
			<input>
				<port id="0" precision="FP32">
					<dim>1</dim>
					<dim>24</dim>
					<dim>80</dim>
					<dim>80</dim>
				</port>
				<port id="1" precision="FP32" />
			</input>
			<output>
				<port id="2" precision="FP32" names="hardswish_48.tmp_0">
					<dim>1</dim>
					<dim>24</dim>
					<dim>80</dim>
					<dim>80</dim>
				</port>
			</output>
		</layer>
		<layer id="144" name="3281" type="Const" version="opset1">
			<data element_type="f32" shape="24, 24, 1, 1" offset="5164" size="2304" />
			<output>
				<port id="0" precision="FP32" names="3281">
					<dim>24</dim>
					<dim>24</dim>
					<dim>1</dim>
					<dim>1</dim>
				</port>
			</output>
		</layer>
		<layer id="145" name="Convolution_753" type="Convolution" version="opset1">
			<data strides="1, 1" dilations="1, 1" pads_begin="0, 0" pads_end="0, 0" auto_pad="explicit" />
			<input>
				<port id="0" precision="FP32">
					<dim>1</dim>
					<dim>24</dim>
					<dim>80</dim>
					<dim>80</dim>
				</port>
				<port id="1" precision="FP32">
					<dim>24</dim>
					<dim>24</dim>
					<dim>1</dim>
					<dim>1</dim>
				</port>
			</input>
			<output>
				<port id="2" precision="FP32">
					<dim>1</dim>
					<dim>24</dim>
					<dim>80</dim>
					<dim>80</dim>
				</port>
			</output>
		</layer>
		<layer id="146" name="3283" type="Const" version="opset1">
			<data element_type="f32" shape="24" offset="7468" size="96" />
			<output>
				<port id="0" precision="FP32" names="3283">
					<dim>24</dim>
				</port>
			</output>
		</layer>
		<layer id="147" name="Constant_756" type="Const" version="opset1">
			<data element_type="i64" shape="1" offset="960" size="8" />
			<output>
				<port id="0" precision="I64">
					<dim>1</dim>
				</port>
			</output>
		</layer>
		<layer id="148" name="ShapeOf_771" type="ShapeOf" version="opset3">
			<data output_type="i64" />
			<input>
				<port id="0" precision="FP32">
					<dim>24</dim>
				</port>
			</input>
			<output>
				<port id="1" precision="I64">
					<dim>1</dim>
				</port>
			</output>
		</layer>
		<layer id="149" name="ShapeOf_754" type="ShapeOf" version="opset3">
			<data output_type="i64" />
			<input>
				<port id="0" precision="FP32">
					<dim>1</dim>
					<dim>24</dim>
					<dim>80</dim>
					<dim>80</dim>
				</port>
			</input>
			<output>
				<port id="1" precision="I64">
					<dim>4</dim>
				</port>
			</output>
		</layer>
		<layer id="150" name="ShapeOf_755" type="ShapeOf" version="opset3">
			<data output_type="i64" />
			<input>
				<port id="0" precision="I64">
					<dim>4</dim>
				</port>
			</input>
			<output>
				<port id="1" precision="I64">
					<dim>1</dim>
				</port>
			</output>
		</layer>
		<layer id="151" name="Constant_757" type="Const" version="opset1">
			<data element_type="i64" shape="1" offset="968" size="8" />
			<output>
				<port id="0" precision="I64">
					<dim>1</dim>
				</port>
			</output>
		</layer>
		<layer id="152" name="Subtract_758" type="Subtract" version="opset1">
			<data auto_broadcast="numpy" />
			<input>
				<port id="0" precision="I64">
					<dim>1</dim>
				</port>
				<port id="1" precision="I64">
					<dim>1</dim>
				</port>
			</input>
			<output>
				<port id="2" precision="I64">
					<dim>1</dim>
				</port>
			</output>
		</layer>
		<layer id="153" name="Broadcast_759" type="Broadcast" version="opset3">
			<data mode="numpy" />
			<input>
				<port id="0" precision="I64">
					<dim>1</dim>
				</port>
				<port id="1" precision="I64">
					<dim>1</dim>
				</port>
			</input>
			<output>
				<port id="2" precision="I64">
					<dim>2</dim>
				</port>
			</output>
		</layer>
		<layer id="154" name="Concat_772" type="Concat" version="opset1">
			<data axis="0" />
			<input>
				<port id="0" precision="I64">
					<dim>1</dim>
				</port>
				<port id="1" precision="I64">
					<dim>1</dim>
				</port>
				<port id="2" precision="I64">
					<dim>2</dim>
				</port>
			</input>
			<output>
				<port id="3" precision="I64">
					<dim>4</dim>
				</port>
			</output>
		</layer>
		<layer id="155" name="Reshape_773" type="Reshape" version="opset1">
			<data special_zero="false" />
			<input>
				<port id="0" precision="FP32">
					<dim>24</dim>
				</port>
				<port id="1" precision="I64">
					<dim>4</dim>
				</port>
			</input>
			<output>
				<port id="2" precision="FP32">
					<dim>1</dim>
					<dim>24</dim>
					<dim>1</dim>
					<dim>1</dim>
				</port>
			</output>
		</layer>
		<layer id="156" name="conv2d_103.tmp_0" type="Add" version="opset1">
			<data auto_broadcast="numpy" />
			<input>
				<port id="0" precision="FP32">
					<dim>1</dim>
					<dim>24</dim>
					<dim>80</dim>
					<dim>80</dim>
				</port>
				<port id="1" precision="FP32">
					<dim>1</dim>
					<dim>24</dim>
					<dim>1</dim>
					<dim>1</dim>
				</port>
			</input>
			<output>
				<port id="2" precision="FP32" names="conv2d_103.tmp_0">
					<dim>1</dim>
					<dim>24</dim>
					<dim>80</dim>
					<dim>80</dim>
				</port>
			</output>
		</layer>
		<layer id="157" name="Add_6" type="Add" version="opset1">
			<data auto_broadcast="numpy" />
			<input>
				<port id="0" precision="FP32">
					<dim>1</dim>
					<dim>24</dim>
					<dim>80</dim>
					<dim>80</dim>
				</port>
				<port id="1" precision="FP32" />
			</input>
			<output>
				<port id="2" precision="FP32" names="Add_6">
					<dim>1</dim>
					<dim>24</dim>
					<dim>80</dim>
					<dim>80</dim>
				</port>
			</output>
		</layer>
		<layer id="158" name="Maximum_802" type="Maximum" version="opset1">
			<data auto_broadcast="numpy" />
			<input>
				<port id="0" precision="FP32" />
				<port id="1" precision="FP32">
					<dim>1</dim>
					<dim>24</dim>
					<dim>80</dim>
					<dim>80</dim>
				</port>
			</input>
			<output>
				<port id="2" precision="FP32">
					<dim>1</dim>
					<dim>24</dim>
					<dim>80</dim>
					<dim>80</dim>
				</port>
			</output>
		</layer>
		<layer id="159" name="Clip_6" type="Minimum" version="opset1">
			<data auto_broadcast="numpy" />
			<input>
				<port id="0" precision="FP32" />
				<port id="1" precision="FP32">
					<dim>1</dim>
					<dim>24</dim>
					<dim>80</dim>
					<dim>80</dim>
				</port>
			</input>
			<output>
				<port id="2" precision="FP32" names="Clip_6">
					<dim>1</dim>
					<dim>24</dim>
					<dim>80</dim>
					<dim>80</dim>
				</port>
			</output>
		</layer>
		<layer id="160" name="Mul_6" type="Multiply" version="opset1">
			<data auto_broadcast="numpy" />
			<input>
				<port id="0" precision="FP32">
					<dim>1</dim>
					<dim>24</dim>
					<dim>80</dim>
					<dim>80</dim>
				</port>
				<port id="1" precision="FP32">
					<dim>1</dim>
					<dim>24</dim>
					<dim>80</dim>
					<dim>80</dim>
				</port>
			</input>
			<output>
				<port id="2" precision="FP32" names="Mul_6">
					<dim>1</dim>
					<dim>24</dim>
					<dim>80</dim>
					<dim>80</dim>
				</port>
			</output>
		</layer>
		<layer id="161" name="hardswish_49.tmp_0" type="Divide" version="opset1">
			<data auto_broadcast="numpy" m_pythondiv="true" />
			<input>
				<port id="0" precision="FP32">
					<dim>1</dim>
					<dim>24</dim>
					<dim>80</dim>
					<dim>80</dim>
				</port>
				<port id="1" precision="FP32" />
			</input>
			<output>
				<port id="2" precision="FP32" names="hardswish_49.tmp_0">
					<dim>1</dim>
					<dim>24</dim>
					<dim>80</dim>
					<dim>80</dim>
				</port>
			</output>
		</layer>
		<layer id="162" name="3285" type="Const" version="opset1">
			<data element_type="f32" shape="24, 1, 3, 3" offset="7564" size="864" />
			<output>
				<port id="0" precision="FP32" names="3285">
					<dim>24</dim>
					<dim>1</dim>
					<dim>3</dim>
					<dim>3</dim>
				</port>
			</output>
		</layer>
		<layer id="163" name="Constant_808" type="Const" version="opset1">
			<data element_type="i64" shape="1" offset="5060" size="8" />
			<output>
				<port id="0" precision="I64">
					<dim>1</dim>
				</port>
			</output>
		</layer>
		<layer id="164" name="ShapeOf_809" type="ShapeOf" version="opset3">
			<data output_type="i64" />
			<input>
				<port id="0" precision="FP32">
					<dim>24</dim>
					<dim>1</dim>
					<dim>3</dim>
					<dim>3</dim>
				</port>
			</input>
			<output>
				<port id="1" precision="I64">
					<dim>4</dim>
				</port>
			</output>
		</layer>
		<layer id="165" name="Constant_806" type="Const" version="opset1">
			<data element_type="i64" shape="" offset="1284" size="8" />
			<output>
				<port id="0" precision="I64" />
			</output>
		</layer>
		<layer id="166" name="Constant_807" type="Const" version="opset1">
			<data element_type="i64" shape="2" offset="1292" size="16" />
			<output>
				<port id="0" precision="I64">
					<dim>2</dim>
				</port>
			</output>
		</layer>
		<layer id="167" name="VariadicSplit_810" type="VariadicSplit" version="opset1">
			<input>
				<port id="0" precision="I64">
					<dim>4</dim>
				</port>
				<port id="1" precision="I64" />
				<port id="2" precision="I64">
					<dim>2</dim>
				</port>
			</input>
			<output>
				<port id="3" precision="I64">
					<dim>1</dim>
				</port>
				<port id="4" precision="I64">
					<dim>3</dim>
				</port>
			</output>
		</layer>
		<layer id="168" name="Divide_811" type="Divide" version="opset1">
			<data auto_broadcast="numpy" m_pythondiv="true" />
			<input>
				<port id="0" precision="I64">
					<dim>1</dim>
				</port>
				<port id="1" precision="I64">
					<dim>1</dim>
				</port>
			</input>
			<output>
				<port id="2" precision="I64">
					<dim>1</dim>
				</port>
			</output>
		</layer>
		<layer id="169" name="Concat_812" type="Concat" version="opset1">
			<data axis="0" />
			<input>
				<port id="0" precision="I64">
					<dim>1</dim>
				</port>
				<port id="1" precision="I64">
					<dim>1</dim>
				</port>
				<port id="2" precision="I64">
					<dim>3</dim>
				</port>
			</input>
			<output>
				<port id="3" precision="I64">
					<dim>5</dim>
				</port>
			</output>
		</layer>
		<layer id="170" name="Reshape_813" type="Reshape" version="opset1">
			<data special_zero="false" />
			<input>
				<port id="0" precision="FP32">
					<dim>24</dim>
					<dim>1</dim>
					<dim>3</dim>
					<dim>3</dim>
				</port>
				<port id="1" precision="I64">
					<dim>5</dim>
				</port>
			</input>
			<output>
				<port id="2" precision="FP32">
					<dim>24</dim>
					<dim>1</dim>
					<dim>1</dim>
					<dim>3</dim>
					<dim>3</dim>
				</port>
			</output>
		</layer>
		<layer id="171" name="GroupConvolution_879" type="GroupConvolution" version="opset1">
			<data strides="2, 2" pads_begin="1, 1" pads_end="1, 1" dilations="1, 1" auto_pad="explicit" />
			<input>
				<port id="0" precision="FP32">
					<dim>1</dim>
					<dim>24</dim>
					<dim>80</dim>
					<dim>80</dim>
				</port>
				<port id="1" precision="FP32">
					<dim>24</dim>
					<dim>1</dim>
					<dim>1</dim>
					<dim>3</dim>
					<dim>3</dim>
				</port>
			</input>
			<output>
				<port id="2" precision="FP32">
					<dim>1</dim>
					<dim>24</dim>
					<dim>40</dim>
					<dim>40</dim>
				</port>
			</output>
		</layer>
		<layer id="172" name="3287" type="Const" version="opset1">
			<data element_type="f32" shape="24" offset="8428" size="96" />
			<output>
				<port id="0" precision="FP32" names="3287">
					<dim>24</dim>
				</port>
			</output>
		</layer>
		<layer id="173" name="Constant_882" type="Const" version="opset1">
			<data element_type="i64" shape="1" offset="960" size="8" />
			<output>
				<port id="0" precision="I64">
					<dim>1</dim>
				</port>
			</output>
		</layer>
		<layer id="174" name="ShapeOf_897" type="ShapeOf" version="opset3">
			<data output_type="i64" />
			<input>
				<port id="0" precision="FP32">
					<dim>24</dim>
				</port>
			</input>
			<output>
				<port id="1" precision="I64">
					<dim>1</dim>
				</port>
			</output>
		</layer>
		<layer id="175" name="ShapeOf_880" type="ShapeOf" version="opset3">
			<data output_type="i64" />
			<input>
				<port id="0" precision="FP32">
					<dim>1</dim>
					<dim>24</dim>
					<dim>40</dim>
					<dim>40</dim>
				</port>
			</input>
			<output>
				<port id="1" precision="I64">
					<dim>4</dim>
				</port>
			</output>
		</layer>
		<layer id="176" name="ShapeOf_881" type="ShapeOf" version="opset3">
			<data output_type="i64" />
			<input>
				<port id="0" precision="I64">
					<dim>4</dim>
				</port>
			</input>
			<output>
				<port id="1" precision="I64">
					<dim>1</dim>
				</port>
			</output>
		</layer>
		<layer id="177" name="Constant_883" type="Const" version="opset1">
			<data element_type="i64" shape="1" offset="968" size="8" />
			<output>
				<port id="0" precision="I64">
					<dim>1</dim>
				</port>
			</output>
		</layer>
		<layer id="178" name="Subtract_884" type="Subtract" version="opset1">
			<data auto_broadcast="numpy" />
			<input>
				<port id="0" precision="I64">
					<dim>1</dim>
				</port>
				<port id="1" precision="I64">
					<dim>1</dim>
				</port>
			</input>
			<output>
				<port id="2" precision="I64">
					<dim>1</dim>
				</port>
			</output>
		</layer>
		<layer id="179" name="Broadcast_885" type="Broadcast" version="opset3">
			<data mode="numpy" />
			<input>
				<port id="0" precision="I64">
					<dim>1</dim>
				</port>
				<port id="1" precision="I64">
					<dim>1</dim>
				</port>
			</input>
			<output>
				<port id="2" precision="I64">
					<dim>2</dim>
				</port>
			</output>
		</layer>
		<layer id="180" name="Concat_898" type="Concat" version="opset1">
			<data axis="0" />
			<input>
				<port id="0" precision="I64">
					<dim>1</dim>
				</port>
				<port id="1" precision="I64">
					<dim>1</dim>
				</port>
				<port id="2" precision="I64">
					<dim>2</dim>
				</port>
			</input>
			<output>
				<port id="3" precision="I64">
					<dim>4</dim>
				</port>
			</output>
		</layer>
		<layer id="181" name="Reshape_899" type="Reshape" version="opset1">
			<data special_zero="false" />
			<input>
				<port id="0" precision="FP32">
					<dim>24</dim>
				</port>
				<port id="1" precision="I64">
					<dim>4</dim>
				</port>
			</input>
			<output>
				<port id="2" precision="FP32">
					<dim>1</dim>
					<dim>24</dim>
					<dim>1</dim>
					<dim>1</dim>
				</port>
			</output>
		</layer>
		<layer id="182" name="depthwise_conv2d_3.tmp_0" type="Add" version="opset1">
			<data auto_broadcast="numpy" />
			<input>
				<port id="0" precision="FP32">
					<dim>1</dim>
					<dim>24</dim>
					<dim>40</dim>
					<dim>40</dim>
				</port>
				<port id="1" precision="FP32">
					<dim>1</dim>
					<dim>24</dim>
					<dim>1</dim>
					<dim>1</dim>
				</port>
			</input>
			<output>
				<port id="2" precision="FP32" names="depthwise_conv2d_3.tmp_0">
					<dim>1</dim>
					<dim>24</dim>
					<dim>40</dim>
					<dim>40</dim>
				</port>
			</output>
		</layer>
		<layer id="183" name="Add_7" type="Add" version="opset1">
			<data auto_broadcast="numpy" />
			<input>
				<port id="0" precision="FP32">
					<dim>1</dim>
					<dim>24</dim>
					<dim>40</dim>
					<dim>40</dim>
				</port>
				<port id="1" precision="FP32" />
			</input>
			<output>
				<port id="2" precision="FP32" names="Add_7">
					<dim>1</dim>
					<dim>24</dim>
					<dim>40</dim>
					<dim>40</dim>
				</port>
			</output>
		</layer>
		<layer id="184" name="Maximum_928" type="Maximum" version="opset1">
			<data auto_broadcast="numpy" />
			<input>
				<port id="0" precision="FP32" />
				<port id="1" precision="FP32">
					<dim>1</dim>
					<dim>24</dim>
					<dim>40</dim>
					<dim>40</dim>
				</port>
			</input>
			<output>
				<port id="2" precision="FP32">
					<dim>1</dim>
					<dim>24</dim>
					<dim>40</dim>
					<dim>40</dim>
				</port>
			</output>
		</layer>
		<layer id="185" name="Clip_7" type="Minimum" version="opset1">
			<data auto_broadcast="numpy" />
			<input>
				<port id="0" precision="FP32" />
				<port id="1" precision="FP32">
					<dim>1</dim>
					<dim>24</dim>
					<dim>40</dim>
					<dim>40</dim>
				</port>
			</input>
			<output>
				<port id="2" precision="FP32" names="Clip_7">
					<dim>1</dim>
					<dim>24</dim>
					<dim>40</dim>
					<dim>40</dim>
				</port>
			</output>
		</layer>
		<layer id="186" name="Mul_7" type="Multiply" version="opset1">
			<data auto_broadcast="numpy" />
			<input>
				<port id="0" precision="FP32">
					<dim>1</dim>
					<dim>24</dim>
					<dim>40</dim>
					<dim>40</dim>
				</port>
				<port id="1" precision="FP32">
					<dim>1</dim>
					<dim>24</dim>
					<dim>40</dim>
					<dim>40</dim>
				</port>
			</input>
			<output>
				<port id="2" precision="FP32" names="Mul_7">
					<dim>1</dim>
					<dim>24</dim>
					<dim>40</dim>
					<dim>40</dim>
				</port>
			</output>
		</layer>
		<layer id="187" name="hardswish_50.tmp_0" type="Divide" version="opset1">
			<data auto_broadcast="numpy" m_pythondiv="true" />
			<input>
				<port id="0" precision="FP32">
					<dim>1</dim>
					<dim>24</dim>
					<dim>40</dim>
					<dim>40</dim>
				</port>
				<port id="1" precision="FP32" />
			</input>
			<output>
				<port id="2" precision="FP32" names="hardswish_50.tmp_0">
					<dim>1</dim>
					<dim>24</dim>
					<dim>40</dim>
					<dim>40</dim>
				</port>
			</output>
		</layer>
		<layer id="188" name="3289" type="Const" version="opset1">
			<data element_type="f32" shape="48, 24, 1, 1" offset="8524" size="4608" />
			<output>
				<port id="0" precision="FP32" names="3289">
					<dim>48</dim>
					<dim>24</dim>
					<dim>1</dim>
					<dim>1</dim>
				</port>
			</output>
		</layer>
		<layer id="189" name="Convolution_932" type="Convolution" version="opset1">
			<data strides="1, 1" dilations="1, 1" pads_begin="0, 0" pads_end="0, 0" auto_pad="explicit" />
			<input>
				<port id="0" precision="FP32">
					<dim>1</dim>
					<dim>24</dim>
					<dim>40</dim>
					<dim>40</dim>
				</port>
				<port id="1" precision="FP32">
					<dim>48</dim>
					<dim>24</dim>
					<dim>1</dim>
					<dim>1</dim>
				</port>
			</input>
			<output>
				<port id="2" precision="FP32">
					<dim>1</dim>
					<dim>48</dim>
					<dim>40</dim>
					<dim>40</dim>
				</port>
			</output>
		</layer>
		<layer id="190" name="3291" type="Const" version="opset1">
			<data element_type="f32" shape="48" offset="13132" size="192" />
			<output>
				<port id="0" precision="FP32" names="3291">
					<dim>48</dim>
				</port>
			</output>
		</layer>
		<layer id="191" name="Constant_935" type="Const" version="opset1">
			<data element_type="i64" shape="1" offset="960" size="8" />
			<output>
				<port id="0" precision="I64">
					<dim>1</dim>
				</port>
			</output>
		</layer>
		<layer id="192" name="ShapeOf_950" type="ShapeOf" version="opset3">
			<data output_type="i64" />
			<input>
				<port id="0" precision="FP32">
					<dim>48</dim>
				</port>
			</input>
			<output>
				<port id="1" precision="I64">
					<dim>1</dim>
				</port>
			</output>
		</layer>
		<layer id="193" name="ShapeOf_933" type="ShapeOf" version="opset3">
			<data output_type="i64" />
			<input>
				<port id="0" precision="FP32">
					<dim>1</dim>
					<dim>48</dim>
					<dim>40</dim>
					<dim>40</dim>
				</port>
			</input>
			<output>
				<port id="1" precision="I64">
					<dim>4</dim>
				</port>
			</output>
		</layer>
		<layer id="194" name="ShapeOf_934" type="ShapeOf" version="opset3">
			<data output_type="i64" />
			<input>
				<port id="0" precision="I64">
					<dim>4</dim>
				</port>
			</input>
			<output>
				<port id="1" precision="I64">
					<dim>1</dim>
				</port>
			</output>
		</layer>
		<layer id="195" name="Constant_936" type="Const" version="opset1">
			<data element_type="i64" shape="1" offset="968" size="8" />
			<output>
				<port id="0" precision="I64">
					<dim>1</dim>
				</port>
			</output>
		</layer>
		<layer id="196" name="Subtract_937" type="Subtract" version="opset1">
			<data auto_broadcast="numpy" />
			<input>
				<port id="0" precision="I64">
					<dim>1</dim>
				</port>
				<port id="1" precision="I64">
					<dim>1</dim>
				</port>
			</input>
			<output>
				<port id="2" precision="I64">
					<dim>1</dim>
				</port>
			</output>
		</layer>
		<layer id="197" name="Broadcast_938" type="Broadcast" version="opset3">
			<data mode="numpy" />
			<input>
				<port id="0" precision="I64">
					<dim>1</dim>
				</port>
				<port id="1" precision="I64">
					<dim>1</dim>
				</port>
			</input>
			<output>
				<port id="2" precision="I64">
					<dim>2</dim>
				</port>
			</output>
		</layer>
		<layer id="198" name="Concat_951" type="Concat" version="opset1">
			<data axis="0" />
			<input>
				<port id="0" precision="I64">
					<dim>1</dim>
				</port>
				<port id="1" precision="I64">
					<dim>1</dim>
				</port>
				<port id="2" precision="I64">
					<dim>2</dim>
				</port>
			</input>
			<output>
				<port id="3" precision="I64">
					<dim>4</dim>
				</port>
			</output>
		</layer>
		<layer id="199" name="Reshape_952" type="Reshape" version="opset1">
			<data special_zero="false" />
			<input>
				<port id="0" precision="FP32">
					<dim>48</dim>
				</port>
				<port id="1" precision="I64">
					<dim>4</dim>
				</port>
			</input>
			<output>
				<port id="2" precision="FP32">
					<dim>1</dim>
					<dim>48</dim>
					<dim>1</dim>
					<dim>1</dim>
				</port>
			</output>
		</layer>
		<layer id="200" name="conv2d_104.tmp_0" type="Add" version="opset1">
			<data auto_broadcast="numpy" />
			<input>
				<port id="0" precision="FP32">
					<dim>1</dim>
					<dim>48</dim>
					<dim>40</dim>
					<dim>40</dim>
				</port>
				<port id="1" precision="FP32">
					<dim>1</dim>
					<dim>48</dim>
					<dim>1</dim>
					<dim>1</dim>
				</port>
			</input>
			<output>
				<port id="2" precision="FP32" names="conv2d_104.tmp_0">
					<dim>1</dim>
					<dim>48</dim>
					<dim>40</dim>
					<dim>40</dim>
				</port>
			</output>
		</layer>
		<layer id="201" name="Add_8" type="Add" version="opset1">
			<data auto_broadcast="numpy" />
			<input>
				<port id="0" precision="FP32">
					<dim>1</dim>
					<dim>48</dim>
					<dim>40</dim>
					<dim>40</dim>
				</port>
				<port id="1" precision="FP32" />
			</input>
			<output>
				<port id="2" precision="FP32" names="Add_8">
					<dim>1</dim>
					<dim>48</dim>
					<dim>40</dim>
					<dim>40</dim>
				</port>
			</output>
		</layer>
		<layer id="202" name="Maximum_981" type="Maximum" version="opset1">
			<data auto_broadcast="numpy" />
			<input>
				<port id="0" precision="FP32" />
				<port id="1" precision="FP32">
					<dim>1</dim>
					<dim>48</dim>
					<dim>40</dim>
					<dim>40</dim>
				</port>
			</input>
			<output>
				<port id="2" precision="FP32">
					<dim>1</dim>
					<dim>48</dim>
					<dim>40</dim>
					<dim>40</dim>
				</port>
			</output>
		</layer>
		<layer id="203" name="Clip_8" type="Minimum" version="opset1">
			<data auto_broadcast="numpy" />
			<input>
				<port id="0" precision="FP32" />
				<port id="1" precision="FP32">
					<dim>1</dim>
					<dim>48</dim>
					<dim>40</dim>
					<dim>40</dim>
				</port>
			</input>
			<output>
				<port id="2" precision="FP32" names="Clip_8">
					<dim>1</dim>
					<dim>48</dim>
					<dim>40</dim>
					<dim>40</dim>
				</port>
			</output>
		</layer>
		<layer id="204" name="Mul_8" type="Multiply" version="opset1">
			<data auto_broadcast="numpy" />
			<input>
				<port id="0" precision="FP32">
					<dim>1</dim>
					<dim>48</dim>
					<dim>40</dim>
					<dim>40</dim>
				</port>
				<port id="1" precision="FP32">
					<dim>1</dim>
					<dim>48</dim>
					<dim>40</dim>
					<dim>40</dim>
				</port>
			</input>
			<output>
				<port id="2" precision="FP32" names="Mul_8">
					<dim>1</dim>
					<dim>48</dim>
					<dim>40</dim>
					<dim>40</dim>
				</port>
			</output>
		</layer>
		<layer id="205" name="hardswish_51.tmp_0" type="Divide" version="opset1">
			<data auto_broadcast="numpy" m_pythondiv="true" />
			<input>
				<port id="0" precision="FP32">
					<dim>1</dim>
					<dim>48</dim>
					<dim>40</dim>
					<dim>40</dim>
				</port>
				<port id="1" precision="FP32" />
			</input>
			<output>
				<port id="2" precision="FP32" names="hardswish_51.tmp_0">
					<dim>1</dim>
					<dim>48</dim>
					<dim>40</dim>
					<dim>40</dim>
				</port>
			</output>
		</layer>
		<layer id="206" name="3293" type="Const" version="opset1">
			<data element_type="f32" shape="48, 1, 3, 3" offset="13324" size="1728" />
			<output>
				<port id="0" precision="FP32" names="3293">
					<dim>48</dim>
					<dim>1</dim>
					<dim>3</dim>
					<dim>3</dim>
				</port>
			</output>
		</layer>
		<layer id="207" name="Constant_987" type="Const" version="opset1">
			<data element_type="i64" shape="1" offset="15052" size="8" />
			<output>
				<port id="0" precision="I64">
					<dim>1</dim>
				</port>
			</output>
		</layer>
		<layer id="208" name="ShapeOf_988" type="ShapeOf" version="opset3">
			<data output_type="i64" />
			<input>
				<port id="0" precision="FP32">
					<dim>48</dim>
					<dim>1</dim>
					<dim>3</dim>
					<dim>3</dim>
				</port>
			</input>
			<output>
				<port id="1" precision="I64">
					<dim>4</dim>
				</port>
			</output>
		</layer>
		<layer id="209" name="Constant_985" type="Const" version="opset1">
			<data element_type="i64" shape="" offset="1284" size="8" />
			<output>
				<port id="0" precision="I64" />
			</output>
		</layer>
		<layer id="210" name="Constant_986" type="Const" version="opset1">
			<data element_type="i64" shape="2" offset="1292" size="16" />
			<output>
				<port id="0" precision="I64">
					<dim>2</dim>
				</port>
			</output>
		</layer>
		<layer id="211" name="VariadicSplit_989" type="VariadicSplit" version="opset1">
			<input>
				<port id="0" precision="I64">
					<dim>4</dim>
				</port>
				<port id="1" precision="I64" />
				<port id="2" precision="I64">
					<dim>2</dim>
				</port>
			</input>
			<output>
				<port id="3" precision="I64">
					<dim>1</dim>
				</port>
				<port id="4" precision="I64">
					<dim>3</dim>
				</port>
			</output>
		</layer>
		<layer id="212" name="Divide_990" type="Divide" version="opset1">
			<data auto_broadcast="numpy" m_pythondiv="true" />
			<input>
				<port id="0" precision="I64">
					<dim>1</dim>
				</port>
				<port id="1" precision="I64">
					<dim>1</dim>
				</port>
			</input>
			<output>
				<port id="2" precision="I64">
					<dim>1</dim>
				</port>
			</output>
		</layer>
		<layer id="213" name="Concat_991" type="Concat" version="opset1">
			<data axis="0" />
			<input>
				<port id="0" precision="I64">
					<dim>1</dim>
				</port>
				<port id="1" precision="I64">
					<dim>1</dim>
				</port>
				<port id="2" precision="I64">
					<dim>3</dim>
				</port>
			</input>
			<output>
				<port id="3" precision="I64">
					<dim>5</dim>
				</port>
			</output>
		</layer>
		<layer id="214" name="Reshape_992" type="Reshape" version="opset1">
			<data special_zero="false" />
			<input>
				<port id="0" precision="FP32">
					<dim>48</dim>
					<dim>1</dim>
					<dim>3</dim>
					<dim>3</dim>
				</port>
				<port id="1" precision="I64">
					<dim>5</dim>
				</port>
			</input>
			<output>
				<port id="2" precision="FP32">
					<dim>48</dim>
					<dim>1</dim>
					<dim>1</dim>
					<dim>3</dim>
					<dim>3</dim>
				</port>
			</output>
		</layer>
		<layer id="215" name="GroupConvolution_1058" type="GroupConvolution" version="opset1">
			<data strides="1, 1" pads_begin="1, 1" pads_end="1, 1" dilations="1, 1" auto_pad="explicit" />
			<input>
				<port id="0" precision="FP32">
					<dim>1</dim>
					<dim>48</dim>
					<dim>40</dim>
					<dim>40</dim>
				</port>
				<port id="1" precision="FP32">
					<dim>48</dim>
					<dim>1</dim>
					<dim>1</dim>
					<dim>3</dim>
					<dim>3</dim>
				</port>
			</input>
			<output>
				<port id="2" precision="FP32">
					<dim>1</dim>
					<dim>48</dim>
					<dim>40</dim>
					<dim>40</dim>
				</port>
			</output>
		</layer>
		<layer id="216" name="3295" type="Const" version="opset1">
			<data element_type="f32" shape="48" offset="15060" size="192" />
			<output>
				<port id="0" precision="FP32" names="3295">
					<dim>48</dim>
				</port>
			</output>
		</layer>
		<layer id="217" name="Constant_1061" type="Const" version="opset1">
			<data element_type="i64" shape="1" offset="960" size="8" />
			<output>
				<port id="0" precision="I64">
					<dim>1</dim>
				</port>
			</output>
		</layer>
		<layer id="218" name="ShapeOf_1076" type="ShapeOf" version="opset3">
			<data output_type="i64" />
			<input>
				<port id="0" precision="FP32">
					<dim>48</dim>
				</port>
			</input>
			<output>
				<port id="1" precision="I64">
					<dim>1</dim>
				</port>
			</output>
		</layer>
		<layer id="219" name="ShapeOf_1059" type="ShapeOf" version="opset3">
			<data output_type="i64" />
			<input>
				<port id="0" precision="FP32">
					<dim>1</dim>
					<dim>48</dim>
					<dim>40</dim>
					<dim>40</dim>
				</port>
			</input>
			<output>
				<port id="1" precision="I64">
					<dim>4</dim>
				</port>
			</output>
		</layer>
		<layer id="220" name="ShapeOf_1060" type="ShapeOf" version="opset3">
			<data output_type="i64" />
			<input>
				<port id="0" precision="I64">
					<dim>4</dim>
				</port>
			</input>
			<output>
				<port id="1" precision="I64">
					<dim>1</dim>
				</port>
			</output>
		</layer>
		<layer id="221" name="Constant_1062" type="Const" version="opset1">
			<data element_type="i64" shape="1" offset="968" size="8" />
			<output>
				<port id="0" precision="I64">
					<dim>1</dim>
				</port>
			</output>
		</layer>
		<layer id="222" name="Subtract_1063" type="Subtract" version="opset1">
			<data auto_broadcast="numpy" />
			<input>
				<port id="0" precision="I64">
					<dim>1</dim>
				</port>
				<port id="1" precision="I64">
					<dim>1</dim>
				</port>
			</input>
			<output>
				<port id="2" precision="I64">
					<dim>1</dim>
				</port>
			</output>
		</layer>
		<layer id="223" name="Broadcast_1064" type="Broadcast" version="opset3">
			<data mode="numpy" />
			<input>
				<port id="0" precision="I64">
					<dim>1</dim>
				</port>
				<port id="1" precision="I64">
					<dim>1</dim>
				</port>
			</input>
			<output>
				<port id="2" precision="I64">
					<dim>2</dim>
				</port>
			</output>
		</layer>
		<layer id="224" name="Concat_1077" type="Concat" version="opset1">
			<data axis="0" />
			<input>
				<port id="0" precision="I64">
					<dim>1</dim>
				</port>
				<port id="1" precision="I64">
					<dim>1</dim>
				</port>
				<port id="2" precision="I64">
					<dim>2</dim>
				</port>
			</input>
			<output>
				<port id="3" precision="I64">
					<dim>4</dim>
				</port>
			</output>
		</layer>
		<layer id="225" name="Reshape_1078" type="Reshape" version="opset1">
			<data special_zero="false" />
			<input>
				<port id="0" precision="FP32">
					<dim>48</dim>
				</port>
				<port id="1" precision="I64">
					<dim>4</dim>
				</port>
			</input>
			<output>
				<port id="2" precision="FP32">
					<dim>1</dim>
					<dim>48</dim>
					<dim>1</dim>
					<dim>1</dim>
				</port>
			</output>
		</layer>
		<layer id="226" name="depthwise_conv2d_4.tmp_0" type="Add" version="opset1">
			<data auto_broadcast="numpy" />
			<input>
				<port id="0" precision="FP32">
					<dim>1</dim>
					<dim>48</dim>
					<dim>40</dim>
					<dim>40</dim>
				</port>
				<port id="1" precision="FP32">
					<dim>1</dim>
					<dim>48</dim>
					<dim>1</dim>
					<dim>1</dim>
				</port>
			</input>
			<output>
				<port id="2" precision="FP32" names="depthwise_conv2d_4.tmp_0">
					<dim>1</dim>
					<dim>48</dim>
					<dim>40</dim>
					<dim>40</dim>
				</port>
			</output>
		</layer>
		<layer id="227" name="Add_9" type="Add" version="opset1">
			<data auto_broadcast="numpy" />
			<input>
				<port id="0" precision="FP32">
					<dim>1</dim>
					<dim>48</dim>
					<dim>40</dim>
					<dim>40</dim>
				</port>
				<port id="1" precision="FP32" />
			</input>
			<output>
				<port id="2" precision="FP32" names="Add_9">
					<dim>1</dim>
					<dim>48</dim>
					<dim>40</dim>
					<dim>40</dim>
				</port>
			</output>
		</layer>
		<layer id="228" name="Maximum_1107" type="Maximum" version="opset1">
			<data auto_broadcast="numpy" />
			<input>
				<port id="0" precision="FP32" />
				<port id="1" precision="FP32">
					<dim>1</dim>
					<dim>48</dim>
					<dim>40</dim>
					<dim>40</dim>
				</port>
			</input>
			<output>
				<port id="2" precision="FP32">
					<dim>1</dim>
					<dim>48</dim>
					<dim>40</dim>
					<dim>40</dim>
				</port>
			</output>
		</layer>
		<layer id="229" name="Clip_9" type="Minimum" version="opset1">
			<data auto_broadcast="numpy" />
			<input>
				<port id="0" precision="FP32" />
				<port id="1" precision="FP32">
					<dim>1</dim>
					<dim>48</dim>
					<dim>40</dim>
					<dim>40</dim>
				</port>
			</input>
			<output>
				<port id="2" precision="FP32" names="Clip_9">
					<dim>1</dim>
					<dim>48</dim>
					<dim>40</dim>
					<dim>40</dim>
				</port>
			</output>
		</layer>
		<layer id="230" name="Mul_9" type="Multiply" version="opset1">
			<data auto_broadcast="numpy" />
			<input>
				<port id="0" precision="FP32">
					<dim>1</dim>
					<dim>48</dim>
					<dim>40</dim>
					<dim>40</dim>
				</port>
				<port id="1" precision="FP32">
					<dim>1</dim>
					<dim>48</dim>
					<dim>40</dim>
					<dim>40</dim>
				</port>
			</input>
			<output>
				<port id="2" precision="FP32" names="Mul_9">
					<dim>1</dim>
					<dim>48</dim>
					<dim>40</dim>
					<dim>40</dim>
				</port>
			</output>
		</layer>
		<layer id="231" name="hardswish_52.tmp_0" type="Divide" version="opset1">
			<data auto_broadcast="numpy" m_pythondiv="true" />
			<input>
				<port id="0" precision="FP32">
					<dim>1</dim>
					<dim>48</dim>
					<dim>40</dim>
					<dim>40</dim>
				</port>
				<port id="1" precision="FP32" />
			</input>
			<output>
				<port id="2" precision="FP32" names="hardswish_52.tmp_0">
					<dim>1</dim>
					<dim>48</dim>
					<dim>40</dim>
					<dim>40</dim>
				</port>
			</output>
		</layer>
		<layer id="232" name="3297" type="Const" version="opset1">
			<data element_type="f32" shape="48, 48, 1, 1" offset="15252" size="9216" />
			<output>
				<port id="0" precision="FP32" names="3297">
					<dim>48</dim>
					<dim>48</dim>
					<dim>1</dim>
					<dim>1</dim>
				</port>
			</output>
		</layer>
		<layer id="233" name="Convolution_1111" type="Convolution" version="opset1">
			<data strides="1, 1" dilations="1, 1" pads_begin="0, 0" pads_end="0, 0" auto_pad="explicit" />
			<input>
				<port id="0" precision="FP32">
					<dim>1</dim>
					<dim>48</dim>
					<dim>40</dim>
					<dim>40</dim>
				</port>
				<port id="1" precision="FP32">
					<dim>48</dim>
					<dim>48</dim>
					<dim>1</dim>
					<dim>1</dim>
				</port>
			</input>
			<output>
				<port id="2" precision="FP32">
					<dim>1</dim>
					<dim>48</dim>
					<dim>40</dim>
					<dim>40</dim>
				</port>
			</output>
		</layer>
		<layer id="234" name="3299" type="Const" version="opset1">
			<data element_type="f32" shape="48" offset="24468" size="192" />
			<output>
				<port id="0" precision="FP32" names="3299">
					<dim>48</dim>
				</port>
			</output>
		</layer>
		<layer id="235" name="Constant_1114" type="Const" version="opset1">
			<data element_type="i64" shape="1" offset="960" size="8" />
			<output>
				<port id="0" precision="I64">
					<dim>1</dim>
				</port>
			</output>
		</layer>
		<layer id="236" name="ShapeOf_1129" type="ShapeOf" version="opset3">
			<data output_type="i64" />
			<input>
				<port id="0" precision="FP32">
					<dim>48</dim>
				</port>
			</input>
			<output>
				<port id="1" precision="I64">
					<dim>1</dim>
				</port>
			</output>
		</layer>
		<layer id="237" name="ShapeOf_1112" type="ShapeOf" version="opset3">
			<data output_type="i64" />
			<input>
				<port id="0" precision="FP32">
					<dim>1</dim>
					<dim>48</dim>
					<dim>40</dim>
					<dim>40</dim>
				</port>
			</input>
			<output>
				<port id="1" precision="I64">
					<dim>4</dim>
				</port>
			</output>
		</layer>
		<layer id="238" name="ShapeOf_1113" type="ShapeOf" version="opset3">
			<data output_type="i64" />
			<input>
				<port id="0" precision="I64">
					<dim>4</dim>
				</port>
			</input>
			<output>
				<port id="1" precision="I64">
					<dim>1</dim>
				</port>
			</output>
		</layer>
		<layer id="239" name="Constant_1115" type="Const" version="opset1">
			<data element_type="i64" shape="1" offset="968" size="8" />
			<output>
				<port id="0" precision="I64">
					<dim>1</dim>
				</port>
			</output>
		</layer>
		<layer id="240" name="Subtract_1116" type="Subtract" version="opset1">
			<data auto_broadcast="numpy" />
			<input>
				<port id="0" precision="I64">
					<dim>1</dim>
				</port>
				<port id="1" precision="I64">
					<dim>1</dim>
				</port>
			</input>
			<output>
				<port id="2" precision="I64">
					<dim>1</dim>
				</port>
			</output>
		</layer>
		<layer id="241" name="Broadcast_1117" type="Broadcast" version="opset3">
			<data mode="numpy" />
			<input>
				<port id="0" precision="I64">
					<dim>1</dim>
				</port>
				<port id="1" precision="I64">
					<dim>1</dim>
				</port>
			</input>
			<output>
				<port id="2" precision="I64">
					<dim>2</dim>
				</port>
			</output>
		</layer>
		<layer id="242" name="Concat_1130" type="Concat" version="opset1">
			<data axis="0" />
			<input>
				<port id="0" precision="I64">
					<dim>1</dim>
				</port>
				<port id="1" precision="I64">
					<dim>1</dim>
				</port>
				<port id="2" precision="I64">
					<dim>2</dim>
				</port>
			</input>
			<output>
				<port id="3" precision="I64">
					<dim>4</dim>
				</port>
			</output>
		</layer>
		<layer id="243" name="Reshape_1131" type="Reshape" version="opset1">
			<data special_zero="false" />
			<input>
				<port id="0" precision="FP32">
					<dim>48</dim>
				</port>
				<port id="1" precision="I64">
					<dim>4</dim>
				</port>
			</input>
			<output>
				<port id="2" precision="FP32">
					<dim>1</dim>
					<dim>48</dim>
					<dim>1</dim>
					<dim>1</dim>
				</port>
			</output>
		</layer>
		<layer id="244" name="conv2d_105.tmp_0" type="Add" version="opset1">
			<data auto_broadcast="numpy" />
			<input>
				<port id="0" precision="FP32">
					<dim>1</dim>
					<dim>48</dim>
					<dim>40</dim>
					<dim>40</dim>
				</port>
				<port id="1" precision="FP32">
					<dim>1</dim>
					<dim>48</dim>
					<dim>1</dim>
					<dim>1</dim>
				</port>
			</input>
			<output>
				<port id="2" precision="FP32" names="conv2d_105.tmp_0">
					<dim>1</dim>
					<dim>48</dim>
					<dim>40</dim>
					<dim>40</dim>
				</port>
			</output>
		</layer>
		<layer id="245" name="Add_10" type="Add" version="opset1">
			<data auto_broadcast="numpy" />
			<input>
				<port id="0" precision="FP32">
					<dim>1</dim>
					<dim>48</dim>
					<dim>40</dim>
					<dim>40</dim>
				</port>
				<port id="1" precision="FP32" />
			</input>
			<output>
				<port id="2" precision="FP32" names="Add_10">
					<dim>1</dim>
					<dim>48</dim>
					<dim>40</dim>
					<dim>40</dim>
				</port>
			</output>
		</layer>
		<layer id="246" name="Maximum_1160" type="Maximum" version="opset1">
			<data auto_broadcast="numpy" />
			<input>
				<port id="0" precision="FP32" />
				<port id="1" precision="FP32">
					<dim>1</dim>
					<dim>48</dim>
					<dim>40</dim>
					<dim>40</dim>
				</port>
			</input>
			<output>
				<port id="2" precision="FP32">
					<dim>1</dim>
					<dim>48</dim>
					<dim>40</dim>
					<dim>40</dim>
				</port>
			</output>
		</layer>
		<layer id="247" name="Clip_10" type="Minimum" version="opset1">
			<data auto_broadcast="numpy" />
			<input>
				<port id="0" precision="FP32" />
				<port id="1" precision="FP32">
					<dim>1</dim>
					<dim>48</dim>
					<dim>40</dim>
					<dim>40</dim>
				</port>
			</input>
			<output>
				<port id="2" precision="FP32" names="Clip_10">
					<dim>1</dim>
					<dim>48</dim>
					<dim>40</dim>
					<dim>40</dim>
				</port>
			</output>
		</layer>
		<layer id="248" name="Mul_10" type="Multiply" version="opset1">
			<data auto_broadcast="numpy" />
			<input>
				<port id="0" precision="FP32">
					<dim>1</dim>
					<dim>48</dim>
					<dim>40</dim>
					<dim>40</dim>
				</port>
				<port id="1" precision="FP32">
					<dim>1</dim>
					<dim>48</dim>
					<dim>40</dim>
					<dim>40</dim>
				</port>
			</input>
			<output>
				<port id="2" precision="FP32" names="Mul_10">
					<dim>1</dim>
					<dim>48</dim>
					<dim>40</dim>
					<dim>40</dim>
				</port>
			</output>
		</layer>
		<layer id="249" name="hardswish_53.tmp_0" type="Divide" version="opset1">
			<data auto_broadcast="numpy" m_pythondiv="true" />
			<input>
				<port id="0" precision="FP32">
					<dim>1</dim>
					<dim>48</dim>
					<dim>40</dim>
					<dim>40</dim>
				</port>
				<port id="1" precision="FP32" />
			</input>
			<output>
				<port id="2" precision="FP32" names="hardswish_53.tmp_0">
					<dim>1</dim>
					<dim>48</dim>
					<dim>40</dim>
					<dim>40</dim>
				</port>
			</output>
		</layer>
		<layer id="250" name="3301" type="Const" version="opset1">
			<data element_type="f32" shape="48, 1, 3, 3" offset="24660" size="1728" />
			<output>
				<port id="0" precision="FP32" names="3301">
					<dim>48</dim>
					<dim>1</dim>
					<dim>3</dim>
					<dim>3</dim>
				</port>
			</output>
		</layer>
		<layer id="251" name="Constant_1166" type="Const" version="opset1">
			<data element_type="i64" shape="1" offset="15052" size="8" />
			<output>
				<port id="0" precision="I64">
					<dim>1</dim>
				</port>
			</output>
		</layer>
		<layer id="252" name="ShapeOf_1167" type="ShapeOf" version="opset3">
			<data output_type="i64" />
			<input>
				<port id="0" precision="FP32">
					<dim>48</dim>
					<dim>1</dim>
					<dim>3</dim>
					<dim>3</dim>
				</port>
			</input>
			<output>
				<port id="1" precision="I64">
					<dim>4</dim>
				</port>
			</output>
		</layer>
		<layer id="253" name="Constant_1164" type="Const" version="opset1">
			<data element_type="i64" shape="" offset="1284" size="8" />
			<output>
				<port id="0" precision="I64" />
			</output>
		</layer>
		<layer id="254" name="Constant_1165" type="Const" version="opset1">
			<data element_type="i64" shape="2" offset="1292" size="16" />
			<output>
				<port id="0" precision="I64">
					<dim>2</dim>
				</port>
			</output>
		</layer>
		<layer id="255" name="VariadicSplit_1168" type="VariadicSplit" version="opset1">
			<input>
				<port id="0" precision="I64">
					<dim>4</dim>
				</port>
				<port id="1" precision="I64" />
				<port id="2" precision="I64">
					<dim>2</dim>
				</port>
			</input>
			<output>
				<port id="3" precision="I64">
					<dim>1</dim>
				</port>
				<port id="4" precision="I64">
					<dim>3</dim>
				</port>
			</output>
		</layer>
		<layer id="256" name="Divide_1169" type="Divide" version="opset1">
			<data auto_broadcast="numpy" m_pythondiv="true" />
			<input>
				<port id="0" precision="I64">
					<dim>1</dim>
				</port>
				<port id="1" precision="I64">
					<dim>1</dim>
				</port>
			</input>
			<output>
				<port id="2" precision="I64">
					<dim>1</dim>
				</port>
			</output>
		</layer>
		<layer id="257" name="Concat_1170" type="Concat" version="opset1">
			<data axis="0" />
			<input>
				<port id="0" precision="I64">
					<dim>1</dim>
				</port>
				<port id="1" precision="I64">
					<dim>1</dim>
				</port>
				<port id="2" precision="I64">
					<dim>3</dim>
				</port>
			</input>
			<output>
				<port id="3" precision="I64">
					<dim>5</dim>
				</port>
			</output>
		</layer>
		<layer id="258" name="Reshape_1171" type="Reshape" version="opset1">
			<data special_zero="false" />
			<input>
				<port id="0" precision="FP32">
					<dim>48</dim>
					<dim>1</dim>
					<dim>3</dim>
					<dim>3</dim>
				</port>
				<port id="1" precision="I64">
					<dim>5</dim>
				</port>
			</input>
			<output>
				<port id="2" precision="FP32">
					<dim>48</dim>
					<dim>1</dim>
					<dim>1</dim>
					<dim>3</dim>
					<dim>3</dim>
				</port>
			</output>
		</layer>
		<layer id="259" name="GroupConvolution_1237" type="GroupConvolution" version="opset1">
			<data strides="2, 2" pads_begin="1, 1" pads_end="1, 1" dilations="1, 1" auto_pad="explicit" />
			<input>
				<port id="0" precision="FP32">
					<dim>1</dim>
					<dim>48</dim>
					<dim>40</dim>
					<dim>40</dim>
				</port>
				<port id="1" precision="FP32">
					<dim>48</dim>
					<dim>1</dim>
					<dim>1</dim>
					<dim>3</dim>
					<dim>3</dim>
				</port>
			</input>
			<output>
				<port id="2" precision="FP32">
					<dim>1</dim>
					<dim>48</dim>
					<dim>20</dim>
					<dim>20</dim>
				</port>
			</output>
		</layer>
		<layer id="260" name="3303" type="Const" version="opset1">
			<data element_type="f32" shape="48" offset="26388" size="192" />
			<output>
				<port id="0" precision="FP32" names="3303">
					<dim>48</dim>
				</port>
			</output>
		</layer>
		<layer id="261" name="Constant_1240" type="Const" version="opset1">
			<data element_type="i64" shape="1" offset="960" size="8" />
			<output>
				<port id="0" precision="I64">
					<dim>1</dim>
				</port>
			</output>
		</layer>
		<layer id="262" name="ShapeOf_1255" type="ShapeOf" version="opset3">
			<data output_type="i64" />
			<input>
				<port id="0" precision="FP32">
					<dim>48</dim>
				</port>
			</input>
			<output>
				<port id="1" precision="I64">
					<dim>1</dim>
				</port>
			</output>
		</layer>
		<layer id="263" name="ShapeOf_1238" type="ShapeOf" version="opset3">
			<data output_type="i64" />
			<input>
				<port id="0" precision="FP32">
					<dim>1</dim>
					<dim>48</dim>
					<dim>20</dim>
					<dim>20</dim>
				</port>
			</input>
			<output>
				<port id="1" precision="I64">
					<dim>4</dim>
				</port>
			</output>
		</layer>
		<layer id="264" name="ShapeOf_1239" type="ShapeOf" version="opset3">
			<data output_type="i64" />
			<input>
				<port id="0" precision="I64">
					<dim>4</dim>
				</port>
			</input>
			<output>
				<port id="1" precision="I64">
					<dim>1</dim>
				</port>
			</output>
		</layer>
		<layer id="265" name="Constant_1241" type="Const" version="opset1">
			<data element_type="i64" shape="1" offset="968" size="8" />
			<output>
				<port id="0" precision="I64">
					<dim>1</dim>
				</port>
			</output>
		</layer>
		<layer id="266" name="Subtract_1242" type="Subtract" version="opset1">
			<data auto_broadcast="numpy" />
			<input>
				<port id="0" precision="I64">
					<dim>1</dim>
				</port>
				<port id="1" precision="I64">
					<dim>1</dim>
				</port>
			</input>
			<output>
				<port id="2" precision="I64">
					<dim>1</dim>
				</port>
			</output>
		</layer>
		<layer id="267" name="Broadcast_1243" type="Broadcast" version="opset3">
			<data mode="numpy" />
			<input>
				<port id="0" precision="I64">
					<dim>1</dim>
				</port>
				<port id="1" precision="I64">
					<dim>1</dim>
				</port>
			</input>
			<output>
				<port id="2" precision="I64">
					<dim>2</dim>
				</port>
			</output>
		</layer>
		<layer id="268" name="Concat_1256" type="Concat" version="opset1">
			<data axis="0" />
			<input>
				<port id="0" precision="I64">
					<dim>1</dim>
				</port>
				<port id="1" precision="I64">
					<dim>1</dim>
				</port>
				<port id="2" precision="I64">
					<dim>2</dim>
				</port>
			</input>
			<output>
				<port id="3" precision="I64">
					<dim>4</dim>
				</port>
			</output>
		</layer>
		<layer id="269" name="Reshape_1257" type="Reshape" version="opset1">
			<data special_zero="false" />
			<input>
				<port id="0" precision="FP32">
					<dim>48</dim>
				</port>
				<port id="1" precision="I64">
					<dim>4</dim>
				</port>
			</input>
			<output>
				<port id="2" precision="FP32">
					<dim>1</dim>
					<dim>48</dim>
					<dim>1</dim>
					<dim>1</dim>
				</port>
			</output>
		</layer>
		<layer id="270" name="depthwise_conv2d_5.tmp_0" type="Add" version="opset1">
			<data auto_broadcast="numpy" />
			<input>
				<port id="0" precision="FP32">
					<dim>1</dim>
					<dim>48</dim>
					<dim>20</dim>
					<dim>20</dim>
				</port>
				<port id="1" precision="FP32">
					<dim>1</dim>
					<dim>48</dim>
					<dim>1</dim>
					<dim>1</dim>
				</port>
			</input>
			<output>
				<port id="2" precision="FP32" names="depthwise_conv2d_5.tmp_0">
					<dim>1</dim>
					<dim>48</dim>
					<dim>20</dim>
					<dim>20</dim>
				</port>
			</output>
		</layer>
		<layer id="271" name="Add_11" type="Add" version="opset1">
			<data auto_broadcast="numpy" />
			<input>
				<port id="0" precision="FP32">
					<dim>1</dim>
					<dim>48</dim>
					<dim>20</dim>
					<dim>20</dim>
				</port>
				<port id="1" precision="FP32" />
			</input>
			<output>
				<port id="2" precision="FP32" names="Add_11">
					<dim>1</dim>
					<dim>48</dim>
					<dim>20</dim>
					<dim>20</dim>
				</port>
			</output>
		</layer>
		<layer id="272" name="Maximum_1286" type="Maximum" version="opset1">
			<data auto_broadcast="numpy" />
			<input>
				<port id="0" precision="FP32" />
				<port id="1" precision="FP32">
					<dim>1</dim>
					<dim>48</dim>
					<dim>20</dim>
					<dim>20</dim>
				</port>
			</input>
			<output>
				<port id="2" precision="FP32">
					<dim>1</dim>
					<dim>48</dim>
					<dim>20</dim>
					<dim>20</dim>
				</port>
			</output>
		</layer>
		<layer id="273" name="Clip_11" type="Minimum" version="opset1">
			<data auto_broadcast="numpy" />
			<input>
				<port id="0" precision="FP32" />
				<port id="1" precision="FP32">
					<dim>1</dim>
					<dim>48</dim>
					<dim>20</dim>
					<dim>20</dim>
				</port>
			</input>
			<output>
				<port id="2" precision="FP32" names="Clip_11">
					<dim>1</dim>
					<dim>48</dim>
					<dim>20</dim>
					<dim>20</dim>
				</port>
			</output>
		</layer>
		<layer id="274" name="Mul_11" type="Multiply" version="opset1">
			<data auto_broadcast="numpy" />
			<input>
				<port id="0" precision="FP32">
					<dim>1</dim>
					<dim>48</dim>
					<dim>20</dim>
					<dim>20</dim>
				</port>
				<port id="1" precision="FP32">
					<dim>1</dim>
					<dim>48</dim>
					<dim>20</dim>
					<dim>20</dim>
				</port>
			</input>
			<output>
				<port id="2" precision="FP32" names="Mul_11">
					<dim>1</dim>
					<dim>48</dim>
					<dim>20</dim>
					<dim>20</dim>
				</port>
			</output>
		</layer>
		<layer id="275" name="hardswish_54.tmp_0" type="Divide" version="opset1">
			<data auto_broadcast="numpy" m_pythondiv="true" />
			<input>
				<port id="0" precision="FP32">
					<dim>1</dim>
					<dim>48</dim>
					<dim>20</dim>
					<dim>20</dim>
				</port>
				<port id="1" precision="FP32" />
			</input>
			<output>
				<port id="2" precision="FP32" names="hardswish_54.tmp_0">
					<dim>1</dim>
					<dim>48</dim>
					<dim>20</dim>
					<dim>20</dim>
				</port>
			</output>
		</layer>
		<layer id="276" name="3305" type="Const" version="opset1">
			<data element_type="f32" shape="88, 48, 1, 1" offset="26580" size="16896" />
			<output>
				<port id="0" precision="FP32" names="3305">
					<dim>88</dim>
					<dim>48</dim>
					<dim>1</dim>
					<dim>1</dim>
				</port>
			</output>
		</layer>
		<layer id="277" name="Convolution_1290" type="Convolution" version="opset1">
			<data strides="1, 1" dilations="1, 1" pads_begin="0, 0" pads_end="0, 0" auto_pad="explicit" />
			<input>
				<port id="0" precision="FP32">
					<dim>1</dim>
					<dim>48</dim>
					<dim>20</dim>
					<dim>20</dim>
				</port>
				<port id="1" precision="FP32">
					<dim>88</dim>
					<dim>48</dim>
					<dim>1</dim>
					<dim>1</dim>
				</port>
			</input>
			<output>
				<port id="2" precision="FP32">
					<dim>1</dim>
					<dim>88</dim>
					<dim>20</dim>
					<dim>20</dim>
				</port>
			</output>
		</layer>
		<layer id="278" name="3307" type="Const" version="opset1">
			<data element_type="f32" shape="88" offset="43476" size="352" />
			<output>
				<port id="0" precision="FP32" names="3307">
					<dim>88</dim>
				</port>
			</output>
		</layer>
		<layer id="279" name="Constant_1293" type="Const" version="opset1">
			<data element_type="i64" shape="1" offset="960" size="8" />
			<output>
				<port id="0" precision="I64">
					<dim>1</dim>
				</port>
			</output>
		</layer>
		<layer id="280" name="ShapeOf_1308" type="ShapeOf" version="opset3">
			<data output_type="i64" />
			<input>
				<port id="0" precision="FP32">
					<dim>88</dim>
				</port>
			</input>
			<output>
				<port id="1" precision="I64">
					<dim>1</dim>
				</port>
			</output>
		</layer>
		<layer id="281" name="ShapeOf_1291" type="ShapeOf" version="opset3">
			<data output_type="i64" />
			<input>
				<port id="0" precision="FP32">
					<dim>1</dim>
					<dim>88</dim>
					<dim>20</dim>
					<dim>20</dim>
				</port>
			</input>
			<output>
				<port id="1" precision="I64">
					<dim>4</dim>
				</port>
			</output>
		</layer>
		<layer id="282" name="ShapeOf_1292" type="ShapeOf" version="opset3">
			<data output_type="i64" />
			<input>
				<port id="0" precision="I64">
					<dim>4</dim>
				</port>
			</input>
			<output>
				<port id="1" precision="I64">
					<dim>1</dim>
				</port>
			</output>
		</layer>
		<layer id="283" name="Constant_1294" type="Const" version="opset1">
			<data element_type="i64" shape="1" offset="968" size="8" />
			<output>
				<port id="0" precision="I64">
					<dim>1</dim>
				</port>
			</output>
		</layer>
		<layer id="284" name="Subtract_1295" type="Subtract" version="opset1">
			<data auto_broadcast="numpy" />
			<input>
				<port id="0" precision="I64">
					<dim>1</dim>
				</port>
				<port id="1" precision="I64">
					<dim>1</dim>
				</port>
			</input>
			<output>
				<port id="2" precision="I64">
					<dim>1</dim>
				</port>
			</output>
		</layer>
		<layer id="285" name="Broadcast_1296" type="Broadcast" version="opset3">
			<data mode="numpy" />
			<input>
				<port id="0" precision="I64">
					<dim>1</dim>
				</port>
				<port id="1" precision="I64">
					<dim>1</dim>
				</port>
			</input>
			<output>
				<port id="2" precision="I64">
					<dim>2</dim>
				</port>
			</output>
		</layer>
		<layer id="286" name="Concat_1309" type="Concat" version="opset1">
			<data axis="0" />
			<input>
				<port id="0" precision="I64">
					<dim>1</dim>
				</port>
				<port id="1" precision="I64">
					<dim>1</dim>
				</port>
				<port id="2" precision="I64">
					<dim>2</dim>
				</port>
			</input>
			<output>
				<port id="3" precision="I64">
					<dim>4</dim>
				</port>
			</output>
		</layer>
		<layer id="287" name="Reshape_1310" type="Reshape" version="opset1">
			<data special_zero="false" />
			<input>
				<port id="0" precision="FP32">
					<dim>88</dim>
				</port>
				<port id="1" precision="I64">
					<dim>4</dim>
				</port>
			</input>
			<output>
				<port id="2" precision="FP32">
					<dim>1</dim>
					<dim>88</dim>
					<dim>1</dim>
					<dim>1</dim>
				</port>
			</output>
		</layer>
		<layer id="288" name="conv2d_106.tmp_0" type="Add" version="opset1">
			<data auto_broadcast="numpy" />
			<input>
				<port id="0" precision="FP32">
					<dim>1</dim>
					<dim>88</dim>
					<dim>20</dim>
					<dim>20</dim>
				</port>
				<port id="1" precision="FP32">
					<dim>1</dim>
					<dim>88</dim>
					<dim>1</dim>
					<dim>1</dim>
				</port>
			</input>
			<output>
				<port id="2" precision="FP32" names="conv2d_106.tmp_0">
					<dim>1</dim>
					<dim>88</dim>
					<dim>20</dim>
					<dim>20</dim>
				</port>
			</output>
		</layer>
		<layer id="289" name="Add_12" type="Add" version="opset1">
			<data auto_broadcast="numpy" />
			<input>
				<port id="0" precision="FP32">
					<dim>1</dim>
					<dim>88</dim>
					<dim>20</dim>
					<dim>20</dim>
				</port>
				<port id="1" precision="FP32" />
			</input>
			<output>
				<port id="2" precision="FP32" names="Add_12">
					<dim>1</dim>
					<dim>88</dim>
					<dim>20</dim>
					<dim>20</dim>
				</port>
			</output>
		</layer>
		<layer id="290" name="Maximum_1339" type="Maximum" version="opset1">
			<data auto_broadcast="numpy" />
			<input>
				<port id="0" precision="FP32" />
				<port id="1" precision="FP32">
					<dim>1</dim>
					<dim>88</dim>
					<dim>20</dim>
					<dim>20</dim>
				</port>
			</input>
			<output>
				<port id="2" precision="FP32">
					<dim>1</dim>
					<dim>88</dim>
					<dim>20</dim>
					<dim>20</dim>
				</port>
			</output>
		</layer>
		<layer id="291" name="Clip_12" type="Minimum" version="opset1">
			<data auto_broadcast="numpy" />
			<input>
				<port id="0" precision="FP32" />
				<port id="1" precision="FP32">
					<dim>1</dim>
					<dim>88</dim>
					<dim>20</dim>
					<dim>20</dim>
				</port>
			</input>
			<output>
				<port id="2" precision="FP32" names="Clip_12">
					<dim>1</dim>
					<dim>88</dim>
					<dim>20</dim>
					<dim>20</dim>
				</port>
			</output>
		</layer>
		<layer id="292" name="Mul_12" type="Multiply" version="opset1">
			<data auto_broadcast="numpy" />
			<input>
				<port id="0" precision="FP32">
					<dim>1</dim>
					<dim>88</dim>
					<dim>20</dim>
					<dim>20</dim>
				</port>
				<port id="1" precision="FP32">
					<dim>1</dim>
					<dim>88</dim>
					<dim>20</dim>
					<dim>20</dim>
				</port>
			</input>
			<output>
				<port id="2" precision="FP32" names="Mul_12">
					<dim>1</dim>
					<dim>88</dim>
					<dim>20</dim>
					<dim>20</dim>
				</port>
			</output>
		</layer>
		<layer id="293" name="hardswish_55.tmp_0" type="Divide" version="opset1">
			<data auto_broadcast="numpy" m_pythondiv="true" />
			<input>
				<port id="0" precision="FP32">
					<dim>1</dim>
					<dim>88</dim>
					<dim>20</dim>
					<dim>20</dim>
				</port>
				<port id="1" precision="FP32" />
			</input>
			<output>
				<port id="2" precision="FP32" names="hardswish_55.tmp_0">
					<dim>1</dim>
					<dim>88</dim>
					<dim>20</dim>
					<dim>20</dim>
				</port>
			</output>
		</layer>
		<layer id="294" name="3309" type="Const" version="opset1">
			<data element_type="f32" shape="88, 1, 5, 5" offset="43828" size="8800" />
			<output>
				<port id="0" precision="FP32" names="3309">
					<dim>88</dim>
					<dim>1</dim>
					<dim>5</dim>
					<dim>5</dim>
				</port>
			</output>
		</layer>
		<layer id="295" name="Constant_1345" type="Const" version="opset1">
			<data element_type="i64" shape="1" offset="52628" size="8" />
			<output>
				<port id="0" precision="I64">
					<dim>1</dim>
				</port>
			</output>
		</layer>
		<layer id="296" name="ShapeOf_1346" type="ShapeOf" version="opset3">
			<data output_type="i64" />
			<input>
				<port id="0" precision="FP32">
					<dim>88</dim>
					<dim>1</dim>
					<dim>5</dim>
					<dim>5</dim>
				</port>
			</input>
			<output>
				<port id="1" precision="I64">
					<dim>4</dim>
				</port>
			</output>
		</layer>
		<layer id="297" name="Constant_1343" type="Const" version="opset1">
			<data element_type="i64" shape="" offset="1284" size="8" />
			<output>
				<port id="0" precision="I64" />
			</output>
		</layer>
		<layer id="298" name="Constant_1344" type="Const" version="opset1">
			<data element_type="i64" shape="2" offset="1292" size="16" />
			<output>
				<port id="0" precision="I64">
					<dim>2</dim>
				</port>
			</output>
		</layer>
		<layer id="299" name="VariadicSplit_1347" type="VariadicSplit" version="opset1">
			<input>
				<port id="0" precision="I64">
					<dim>4</dim>
				</port>
				<port id="1" precision="I64" />
				<port id="2" precision="I64">
					<dim>2</dim>
				</port>
			</input>
			<output>
				<port id="3" precision="I64">
					<dim>1</dim>
				</port>
				<port id="4" precision="I64">
					<dim>3</dim>
				</port>
			</output>
		</layer>
		<layer id="300" name="Divide_1348" type="Divide" version="opset1">
			<data auto_broadcast="numpy" m_pythondiv="true" />
			<input>
				<port id="0" precision="I64">
					<dim>1</dim>
				</port>
				<port id="1" precision="I64">
					<dim>1</dim>
				</port>
			</input>
			<output>
				<port id="2" precision="I64">
					<dim>1</dim>
				</port>
			</output>
		</layer>
		<layer id="301" name="Concat_1349" type="Concat" version="opset1">
			<data axis="0" />
			<input>
				<port id="0" precision="I64">
					<dim>1</dim>
				</port>
				<port id="1" precision="I64">
					<dim>1</dim>
				</port>
				<port id="2" precision="I64">
					<dim>3</dim>
				</port>
			</input>
			<output>
				<port id="3" precision="I64">
					<dim>5</dim>
				</port>
			</output>
		</layer>
		<layer id="302" name="Reshape_1350" type="Reshape" version="opset1">
			<data special_zero="false" />
			<input>
				<port id="0" precision="FP32">
					<dim>88</dim>
					<dim>1</dim>
					<dim>5</dim>
					<dim>5</dim>
				</port>
				<port id="1" precision="I64">
					<dim>5</dim>
				</port>
			</input>
			<output>
				<port id="2" precision="FP32">
					<dim>88</dim>
					<dim>1</dim>
					<dim>1</dim>
					<dim>5</dim>
					<dim>5</dim>
				</port>
			</output>
		</layer>
		<layer id="303" name="GroupConvolution_1416" type="GroupConvolution" version="opset1">
			<data strides="1, 1" pads_begin="2, 2" pads_end="2, 2" dilations="1, 1" auto_pad="explicit" />
			<input>
				<port id="0" precision="FP32">
					<dim>1</dim>
					<dim>88</dim>
					<dim>20</dim>
					<dim>20</dim>
				</port>
				<port id="1" precision="FP32">
					<dim>88</dim>
					<dim>1</dim>
					<dim>1</dim>
					<dim>5</dim>
					<dim>5</dim>
				</port>
			</input>
			<output>
				<port id="2" precision="FP32">
					<dim>1</dim>
					<dim>88</dim>
					<dim>20</dim>
					<dim>20</dim>
				</port>
			</output>
		</layer>
		<layer id="304" name="3311" type="Const" version="opset1">
			<data element_type="f32" shape="88" offset="52636" size="352" />
			<output>
				<port id="0" precision="FP32" names="3311">
					<dim>88</dim>
				</port>
			</output>
		</layer>
		<layer id="305" name="Constant_1419" type="Const" version="opset1">
			<data element_type="i64" shape="1" offset="960" size="8" />
			<output>
				<port id="0" precision="I64">
					<dim>1</dim>
				</port>
			</output>
		</layer>
		<layer id="306" name="ShapeOf_1434" type="ShapeOf" version="opset3">
			<data output_type="i64" />
			<input>
				<port id="0" precision="FP32">
					<dim>88</dim>
				</port>
			</input>
			<output>
				<port id="1" precision="I64">
					<dim>1</dim>
				</port>
			</output>
		</layer>
		<layer id="307" name="ShapeOf_1417" type="ShapeOf" version="opset3">
			<data output_type="i64" />
			<input>
				<port id="0" precision="FP32">
					<dim>1</dim>
					<dim>88</dim>
					<dim>20</dim>
					<dim>20</dim>
				</port>
			</input>
			<output>
				<port id="1" precision="I64">
					<dim>4</dim>
				</port>
			</output>
		</layer>
		<layer id="308" name="ShapeOf_1418" type="ShapeOf" version="opset3">
			<data output_type="i64" />
			<input>
				<port id="0" precision="I64">
					<dim>4</dim>
				</port>
			</input>
			<output>
				<port id="1" precision="I64">
					<dim>1</dim>
				</port>
			</output>
		</layer>
		<layer id="309" name="Constant_1420" type="Const" version="opset1">
			<data element_type="i64" shape="1" offset="968" size="8" />
			<output>
				<port id="0" precision="I64">
					<dim>1</dim>
				</port>
			</output>
		</layer>
		<layer id="310" name="Subtract_1421" type="Subtract" version="opset1">
			<data auto_broadcast="numpy" />
			<input>
				<port id="0" precision="I64">
					<dim>1</dim>
				</port>
				<port id="1" precision="I64">
					<dim>1</dim>
				</port>
			</input>
			<output>
				<port id="2" precision="I64">
					<dim>1</dim>
				</port>
			</output>
		</layer>
		<layer id="311" name="Broadcast_1422" type="Broadcast" version="opset3">
			<data mode="numpy" />
			<input>
				<port id="0" precision="I64">
					<dim>1</dim>
				</port>
				<port id="1" precision="I64">
					<dim>1</dim>
				</port>
			</input>
			<output>
				<port id="2" precision="I64">
					<dim>2</dim>
				</port>
			</output>
		</layer>
		<layer id="312" name="Concat_1435" type="Concat" version="opset1">
			<data axis="0" />
			<input>
				<port id="0" precision="I64">
					<dim>1</dim>
				</port>
				<port id="1" precision="I64">
					<dim>1</dim>
				</port>
				<port id="2" precision="I64">
					<dim>2</dim>
				</port>
			</input>
			<output>
				<port id="3" precision="I64">
					<dim>4</dim>
				</port>
			</output>
		</layer>
		<layer id="313" name="Reshape_1436" type="Reshape" version="opset1">
			<data special_zero="false" />
			<input>
				<port id="0" precision="FP32">
					<dim>88</dim>
				</port>
				<port id="1" precision="I64">
					<dim>4</dim>
				</port>
			</input>
			<output>
				<port id="2" precision="FP32">
					<dim>1</dim>
					<dim>88</dim>
					<dim>1</dim>
					<dim>1</dim>
				</port>
			</output>
		</layer>
		<layer id="314" name="depthwise_conv2d_6.tmp_0" type="Add" version="opset1">
			<data auto_broadcast="numpy" />
			<input>
				<port id="0" precision="FP32">
					<dim>1</dim>
					<dim>88</dim>
					<dim>20</dim>
					<dim>20</dim>
				</port>
				<port id="1" precision="FP32">
					<dim>1</dim>
					<dim>88</dim>
					<dim>1</dim>
					<dim>1</dim>
				</port>
			</input>
			<output>
				<port id="2" precision="FP32" names="depthwise_conv2d_6.tmp_0">
					<dim>1</dim>
					<dim>88</dim>
					<dim>20</dim>
					<dim>20</dim>
				</port>
			</output>
		</layer>
		<layer id="315" name="Add_13" type="Add" version="opset1">
			<data auto_broadcast="numpy" />
			<input>
				<port id="0" precision="FP32">
					<dim>1</dim>
					<dim>88</dim>
					<dim>20</dim>
					<dim>20</dim>
				</port>
				<port id="1" precision="FP32" />
			</input>
			<output>
				<port id="2" precision="FP32" names="Add_13">
					<dim>1</dim>
					<dim>88</dim>
					<dim>20</dim>
					<dim>20</dim>
				</port>
			</output>
		</layer>
		<layer id="316" name="Maximum_1465" type="Maximum" version="opset1">
			<data auto_broadcast="numpy" />
			<input>
				<port id="0" precision="FP32" />
				<port id="1" precision="FP32">
					<dim>1</dim>
					<dim>88</dim>
					<dim>20</dim>
					<dim>20</dim>
				</port>
			</input>
			<output>
				<port id="2" precision="FP32">
					<dim>1</dim>
					<dim>88</dim>
					<dim>20</dim>
					<dim>20</dim>
				</port>
			</output>
		</layer>
		<layer id="317" name="Clip_13" type="Minimum" version="opset1">
			<data auto_broadcast="numpy" />
			<input>
				<port id="0" precision="FP32" />
				<port id="1" precision="FP32">
					<dim>1</dim>
					<dim>88</dim>
					<dim>20</dim>
					<dim>20</dim>
				</port>
			</input>
			<output>
				<port id="2" precision="FP32" names="Clip_13">
					<dim>1</dim>
					<dim>88</dim>
					<dim>20</dim>
					<dim>20</dim>
				</port>
			</output>
		</layer>
		<layer id="318" name="Mul_13" type="Multiply" version="opset1">
			<data auto_broadcast="numpy" />
			<input>
				<port id="0" precision="FP32">
					<dim>1</dim>
					<dim>88</dim>
					<dim>20</dim>
					<dim>20</dim>
				</port>
				<port id="1" precision="FP32">
					<dim>1</dim>
					<dim>88</dim>
					<dim>20</dim>
					<dim>20</dim>
				</port>
			</input>
			<output>
				<port id="2" precision="FP32" names="Mul_13">
					<dim>1</dim>
					<dim>88</dim>
					<dim>20</dim>
					<dim>20</dim>
				</port>
			</output>
		</layer>
		<layer id="319" name="hardswish_56.tmp_0" type="Divide" version="opset1">
			<data auto_broadcast="numpy" m_pythondiv="true" />
			<input>
				<port id="0" precision="FP32">
					<dim>1</dim>
					<dim>88</dim>
					<dim>20</dim>
					<dim>20</dim>
				</port>
				<port id="1" precision="FP32" />
			</input>
			<output>
				<port id="2" precision="FP32" names="hardswish_56.tmp_0">
					<dim>1</dim>
					<dim>88</dim>
					<dim>20</dim>
					<dim>20</dim>
				</port>
			</output>
		</layer>
		<layer id="320" name="3313" type="Const" version="opset1">
			<data element_type="f32" shape="88, 88, 1, 1" offset="52988" size="30976" />
			<output>
				<port id="0" precision="FP32" names="3313">
					<dim>88</dim>
					<dim>88</dim>
					<dim>1</dim>
					<dim>1</dim>
				</port>
			</output>
		</layer>
		<layer id="321" name="Convolution_1469" type="Convolution" version="opset1">
			<data strides="1, 1" dilations="1, 1" pads_begin="0, 0" pads_end="0, 0" auto_pad="explicit" />
			<input>
				<port id="0" precision="FP32">
					<dim>1</dim>
					<dim>88</dim>
					<dim>20</dim>
					<dim>20</dim>
				</port>
				<port id="1" precision="FP32">
					<dim>88</dim>
					<dim>88</dim>
					<dim>1</dim>
					<dim>1</dim>
				</port>
			</input>
			<output>
				<port id="2" precision="FP32">
					<dim>1</dim>
					<dim>88</dim>
					<dim>20</dim>
					<dim>20</dim>
				</port>
			</output>
		</layer>
		<layer id="322" name="3315" type="Const" version="opset1">
			<data element_type="f32" shape="88" offset="83964" size="352" />
			<output>
				<port id="0" precision="FP32" names="3315">
					<dim>88</dim>
				</port>
			</output>
		</layer>
		<layer id="323" name="Constant_1472" type="Const" version="opset1">
			<data element_type="i64" shape="1" offset="960" size="8" />
			<output>
				<port id="0" precision="I64">
					<dim>1</dim>
				</port>
			</output>
		</layer>
		<layer id="324" name="ShapeOf_1487" type="ShapeOf" version="opset3">
			<data output_type="i64" />
			<input>
				<port id="0" precision="FP32">
					<dim>88</dim>
				</port>
			</input>
			<output>
				<port id="1" precision="I64">
					<dim>1</dim>
				</port>
			</output>
		</layer>
		<layer id="325" name="ShapeOf_1470" type="ShapeOf" version="opset3">
			<data output_type="i64" />
			<input>
				<port id="0" precision="FP32">
					<dim>1</dim>
					<dim>88</dim>
					<dim>20</dim>
					<dim>20</dim>
				</port>
			</input>
			<output>
				<port id="1" precision="I64">
					<dim>4</dim>
				</port>
			</output>
		</layer>
		<layer id="326" name="ShapeOf_1471" type="ShapeOf" version="opset3">
			<data output_type="i64" />
			<input>
				<port id="0" precision="I64">
					<dim>4</dim>
				</port>
			</input>
			<output>
				<port id="1" precision="I64">
					<dim>1</dim>
				</port>
			</output>
		</layer>
		<layer id="327" name="Constant_1473" type="Const" version="opset1">
			<data element_type="i64" shape="1" offset="968" size="8" />
			<output>
				<port id="0" precision="I64">
					<dim>1</dim>
				</port>
			</output>
		</layer>
		<layer id="328" name="Subtract_1474" type="Subtract" version="opset1">
			<data auto_broadcast="numpy" />
			<input>
				<port id="0" precision="I64">
					<dim>1</dim>
				</port>
				<port id="1" precision="I64">
					<dim>1</dim>
				</port>
			</input>
			<output>
				<port id="2" precision="I64">
					<dim>1</dim>
				</port>
			</output>
		</layer>
		<layer id="329" name="Broadcast_1475" type="Broadcast" version="opset3">
			<data mode="numpy" />
			<input>
				<port id="0" precision="I64">
					<dim>1</dim>
				</port>
				<port id="1" precision="I64">
					<dim>1</dim>
				</port>
			</input>
			<output>
				<port id="2" precision="I64">
					<dim>2</dim>
				</port>
			</output>
		</layer>
		<layer id="330" name="Concat_1488" type="Concat" version="opset1">
			<data axis="0" />
			<input>
				<port id="0" precision="I64">
					<dim>1</dim>
				</port>
				<port id="1" precision="I64">
					<dim>1</dim>
				</port>
				<port id="2" precision="I64">
					<dim>2</dim>
				</port>
			</input>
			<output>
				<port id="3" precision="I64">
					<dim>4</dim>
				</port>
			</output>
		</layer>
		<layer id="331" name="Reshape_1489" type="Reshape" version="opset1">
			<data special_zero="false" />
			<input>
				<port id="0" precision="FP32">
					<dim>88</dim>
				</port>
				<port id="1" precision="I64">
					<dim>4</dim>
				</port>
			</input>
			<output>
				<port id="2" precision="FP32">
					<dim>1</dim>
					<dim>88</dim>
					<dim>1</dim>
					<dim>1</dim>
				</port>
			</output>
		</layer>
		<layer id="332" name="conv2d_107.tmp_0" type="Add" version="opset1">
			<data auto_broadcast="numpy" />
			<input>
				<port id="0" precision="FP32">
					<dim>1</dim>
					<dim>88</dim>
					<dim>20</dim>
					<dim>20</dim>
				</port>
				<port id="1" precision="FP32">
					<dim>1</dim>
					<dim>88</dim>
					<dim>1</dim>
					<dim>1</dim>
				</port>
			</input>
			<output>
				<port id="2" precision="FP32" names="conv2d_107.tmp_0">
					<dim>1</dim>
					<dim>88</dim>
					<dim>20</dim>
					<dim>20</dim>
				</port>
			</output>
		</layer>
		<layer id="333" name="Add_14" type="Add" version="opset1">
			<data auto_broadcast="numpy" />
			<input>
				<port id="0" precision="FP32">
					<dim>1</dim>
					<dim>88</dim>
					<dim>20</dim>
					<dim>20</dim>
				</port>
				<port id="1" precision="FP32" />
			</input>
			<output>
				<port id="2" precision="FP32" names="Add_14">
					<dim>1</dim>
					<dim>88</dim>
					<dim>20</dim>
					<dim>20</dim>
				</port>
			</output>
		</layer>
		<layer id="334" name="Maximum_1518" type="Maximum" version="opset1">
			<data auto_broadcast="numpy" />
			<input>
				<port id="0" precision="FP32" />
				<port id="1" precision="FP32">
					<dim>1</dim>
					<dim>88</dim>
					<dim>20</dim>
					<dim>20</dim>
				</port>
			</input>
			<output>
				<port id="2" precision="FP32">
					<dim>1</dim>
					<dim>88</dim>
					<dim>20</dim>
					<dim>20</dim>
				</port>
			</output>
		</layer>
		<layer id="335" name="Clip_14" type="Minimum" version="opset1">
			<data auto_broadcast="numpy" />
			<input>
				<port id="0" precision="FP32" />
				<port id="1" precision="FP32">
					<dim>1</dim>
					<dim>88</dim>
					<dim>20</dim>
					<dim>20</dim>
				</port>
			</input>
			<output>
				<port id="2" precision="FP32" names="Clip_14">
					<dim>1</dim>
					<dim>88</dim>
					<dim>20</dim>
					<dim>20</dim>
				</port>
			</output>
		</layer>
		<layer id="336" name="Mul_14" type="Multiply" version="opset1">
			<data auto_broadcast="numpy" />
			<input>
				<port id="0" precision="FP32">
					<dim>1</dim>
					<dim>88</dim>
					<dim>20</dim>
					<dim>20</dim>
				</port>
				<port id="1" precision="FP32">
					<dim>1</dim>
					<dim>88</dim>
					<dim>20</dim>
					<dim>20</dim>
				</port>
			</input>
			<output>
				<port id="2" precision="FP32" names="Mul_14">
					<dim>1</dim>
					<dim>88</dim>
					<dim>20</dim>
					<dim>20</dim>
				</port>
			</output>
		</layer>
		<layer id="337" name="hardswish_57.tmp_0" type="Divide" version="opset1">
			<data auto_broadcast="numpy" m_pythondiv="true" />
			<input>
				<port id="0" precision="FP32">
					<dim>1</dim>
					<dim>88</dim>
					<dim>20</dim>
					<dim>20</dim>
				</port>
				<port id="1" precision="FP32" />
			</input>
			<output>
				<port id="2" precision="FP32" names="hardswish_57.tmp_0">
					<dim>1</dim>
					<dim>88</dim>
					<dim>20</dim>
					<dim>20</dim>
				</port>
			</output>
		</layer>
		<layer id="338" name="3317" type="Const" version="opset1">
			<data element_type="f32" shape="88, 1, 5, 5" offset="84316" size="8800" />
			<output>
				<port id="0" precision="FP32" names="3317">
					<dim>88</dim>
					<dim>1</dim>
					<dim>5</dim>
					<dim>5</dim>
				</port>
			</output>
		</layer>
		<layer id="339" name="Constant_1524" type="Const" version="opset1">
			<data element_type="i64" shape="1" offset="52628" size="8" />
			<output>
				<port id="0" precision="I64">
					<dim>1</dim>
				</port>
			</output>
		</layer>
		<layer id="340" name="ShapeOf_1525" type="ShapeOf" version="opset3">
			<data output_type="i64" />
			<input>
				<port id="0" precision="FP32">
					<dim>88</dim>
					<dim>1</dim>
					<dim>5</dim>
					<dim>5</dim>
				</port>
			</input>
			<output>
				<port id="1" precision="I64">
					<dim>4</dim>
				</port>
			</output>
		</layer>
		<layer id="341" name="Constant_1522" type="Const" version="opset1">
			<data element_type="i64" shape="" offset="1284" size="8" />
			<output>
				<port id="0" precision="I64" />
			</output>
		</layer>
		<layer id="342" name="Constant_1523" type="Const" version="opset1">
			<data element_type="i64" shape="2" offset="1292" size="16" />
			<output>
				<port id="0" precision="I64">
					<dim>2</dim>
				</port>
			</output>
		</layer>
		<layer id="343" name="VariadicSplit_1526" type="VariadicSplit" version="opset1">
			<input>
				<port id="0" precision="I64">
					<dim>4</dim>
				</port>
				<port id="1" precision="I64" />
				<port id="2" precision="I64">
					<dim>2</dim>
				</port>
			</input>
			<output>
				<port id="3" precision="I64">
					<dim>1</dim>
				</port>
				<port id="4" precision="I64">
					<dim>3</dim>
				</port>
			</output>
		</layer>
		<layer id="344" name="Divide_1527" type="Divide" version="opset1">
			<data auto_broadcast="numpy" m_pythondiv="true" />
			<input>
				<port id="0" precision="I64">
					<dim>1</dim>
				</port>
				<port id="1" precision="I64">
					<dim>1</dim>
				</port>
			</input>
			<output>
				<port id="2" precision="I64">
					<dim>1</dim>
				</port>
			</output>
		</layer>
		<layer id="345" name="Concat_1528" type="Concat" version="opset1">
			<data axis="0" />
			<input>
				<port id="0" precision="I64">
					<dim>1</dim>
				</port>
				<port id="1" precision="I64">
					<dim>1</dim>
				</port>
				<port id="2" precision="I64">
					<dim>3</dim>
				</port>
			</input>
			<output>
				<port id="3" precision="I64">
					<dim>5</dim>
				</port>
			</output>
		</layer>
		<layer id="346" name="Reshape_1529" type="Reshape" version="opset1">
			<data special_zero="false" />
			<input>
				<port id="0" precision="FP32">
					<dim>88</dim>
					<dim>1</dim>
					<dim>5</dim>
					<dim>5</dim>
				</port>
				<port id="1" precision="I64">
					<dim>5</dim>
				</port>
			</input>
			<output>
				<port id="2" precision="FP32">
					<dim>88</dim>
					<dim>1</dim>
					<dim>1</dim>
					<dim>5</dim>
					<dim>5</dim>
				</port>
			</output>
		</layer>
		<layer id="347" name="GroupConvolution_1595" type="GroupConvolution" version="opset1">
			<data strides="1, 1" pads_begin="2, 2" pads_end="2, 2" dilations="1, 1" auto_pad="explicit" />
			<input>
				<port id="0" precision="FP32">
					<dim>1</dim>
					<dim>88</dim>
					<dim>20</dim>
					<dim>20</dim>
				</port>
				<port id="1" precision="FP32">
					<dim>88</dim>
					<dim>1</dim>
					<dim>1</dim>
					<dim>5</dim>
					<dim>5</dim>
				</port>
			</input>
			<output>
				<port id="2" precision="FP32">
					<dim>1</dim>
					<dim>88</dim>
					<dim>20</dim>
					<dim>20</dim>
				</port>
			</output>
		</layer>
		<layer id="348" name="3319" type="Const" version="opset1">
			<data element_type="f32" shape="88" offset="93116" size="352" />
			<output>
				<port id="0" precision="FP32" names="3319">
					<dim>88</dim>
				</port>
			</output>
		</layer>
		<layer id="349" name="Constant_1598" type="Const" version="opset1">
			<data element_type="i64" shape="1" offset="960" size="8" />
			<output>
				<port id="0" precision="I64">
					<dim>1</dim>
				</port>
			</output>
		</layer>
		<layer id="350" name="ShapeOf_1613" type="ShapeOf" version="opset3">
			<data output_type="i64" />
			<input>
				<port id="0" precision="FP32">
					<dim>88</dim>
				</port>
			</input>
			<output>
				<port id="1" precision="I64">
					<dim>1</dim>
				</port>
			</output>
		</layer>
		<layer id="351" name="ShapeOf_1596" type="ShapeOf" version="opset3">
			<data output_type="i64" />
			<input>
				<port id="0" precision="FP32">
					<dim>1</dim>
					<dim>88</dim>
					<dim>20</dim>
					<dim>20</dim>
				</port>
			</input>
			<output>
				<port id="1" precision="I64">
					<dim>4</dim>
				</port>
			</output>
		</layer>
		<layer id="352" name="ShapeOf_1597" type="ShapeOf" version="opset3">
			<data output_type="i64" />
			<input>
				<port id="0" precision="I64">
					<dim>4</dim>
				</port>
			</input>
			<output>
				<port id="1" precision="I64">
					<dim>1</dim>
				</port>
			</output>
		</layer>
		<layer id="353" name="Constant_1599" type="Const" version="opset1">
			<data element_type="i64" shape="1" offset="968" size="8" />
			<output>
				<port id="0" precision="I64">
					<dim>1</dim>
				</port>
			</output>
		</layer>
		<layer id="354" name="Subtract_1600" type="Subtract" version="opset1">
			<data auto_broadcast="numpy" />
			<input>
				<port id="0" precision="I64">
					<dim>1</dim>
				</port>
				<port id="1" precision="I64">
					<dim>1</dim>
				</port>
			</input>
			<output>
				<port id="2" precision="I64">
					<dim>1</dim>
				</port>
			</output>
		</layer>
		<layer id="355" name="Broadcast_1601" type="Broadcast" version="opset3">
			<data mode="numpy" />
			<input>
				<port id="0" precision="I64">
					<dim>1</dim>
				</port>
				<port id="1" precision="I64">
					<dim>1</dim>
				</port>
			</input>
			<output>
				<port id="2" precision="I64">
					<dim>2</dim>
				</port>
			</output>
		</layer>
		<layer id="356" name="Concat_1614" type="Concat" version="opset1">
			<data axis="0" />
			<input>
				<port id="0" precision="I64">
					<dim>1</dim>
				</port>
				<port id="1" precision="I64">
					<dim>1</dim>
				</port>
				<port id="2" precision="I64">
					<dim>2</dim>
				</port>
			</input>
			<output>
				<port id="3" precision="I64">
					<dim>4</dim>
				</port>
			</output>
		</layer>
		<layer id="357" name="Reshape_1615" type="Reshape" version="opset1">
			<data special_zero="false" />
			<input>
				<port id="0" precision="FP32">
					<dim>88</dim>
				</port>
				<port id="1" precision="I64">
					<dim>4</dim>
				</port>
			</input>
			<output>
				<port id="2" precision="FP32">
					<dim>1</dim>
					<dim>88</dim>
					<dim>1</dim>
					<dim>1</dim>
				</port>
			</output>
		</layer>
		<layer id="358" name="depthwise_conv2d_7.tmp_0" type="Add" version="opset1">
			<data auto_broadcast="numpy" />
			<input>
				<port id="0" precision="FP32">
					<dim>1</dim>
					<dim>88</dim>
					<dim>20</dim>
					<dim>20</dim>
				</port>
				<port id="1" precision="FP32">
					<dim>1</dim>
					<dim>88</dim>
					<dim>1</dim>
					<dim>1</dim>
				</port>
			</input>
			<output>
				<port id="2" precision="FP32" names="depthwise_conv2d_7.tmp_0">
					<dim>1</dim>
					<dim>88</dim>
					<dim>20</dim>
					<dim>20</dim>
				</port>
			</output>
		</layer>
		<layer id="359" name="Add_15" type="Add" version="opset1">
			<data auto_broadcast="numpy" />
			<input>
				<port id="0" precision="FP32">
					<dim>1</dim>
					<dim>88</dim>
					<dim>20</dim>
					<dim>20</dim>
				</port>
				<port id="1" precision="FP32" />
			</input>
			<output>
				<port id="2" precision="FP32" names="Add_15">
					<dim>1</dim>
					<dim>88</dim>
					<dim>20</dim>
					<dim>20</dim>
				</port>
			</output>
		</layer>
		<layer id="360" name="Maximum_1644" type="Maximum" version="opset1">
			<data auto_broadcast="numpy" />
			<input>
				<port id="0" precision="FP32" />
				<port id="1" precision="FP32">
					<dim>1</dim>
					<dim>88</dim>
					<dim>20</dim>
					<dim>20</dim>
				</port>
			</input>
			<output>
				<port id="2" precision="FP32">
					<dim>1</dim>
					<dim>88</dim>
					<dim>20</dim>
					<dim>20</dim>
				</port>
			</output>
		</layer>
		<layer id="361" name="Clip_15" type="Minimum" version="opset1">
			<data auto_broadcast="numpy" />
			<input>
				<port id="0" precision="FP32" />
				<port id="1" precision="FP32">
					<dim>1</dim>
					<dim>88</dim>
					<dim>20</dim>
					<dim>20</dim>
				</port>
			</input>
			<output>
				<port id="2" precision="FP32" names="Clip_15">
					<dim>1</dim>
					<dim>88</dim>
					<dim>20</dim>
					<dim>20</dim>
				</port>
			</output>
		</layer>
		<layer id="362" name="Mul_15" type="Multiply" version="opset1">
			<data auto_broadcast="numpy" />
			<input>
				<port id="0" precision="FP32">
					<dim>1</dim>
					<dim>88</dim>
					<dim>20</dim>
					<dim>20</dim>
				</port>
				<port id="1" precision="FP32">
					<dim>1</dim>
					<dim>88</dim>
					<dim>20</dim>
					<dim>20</dim>
				</port>
			</input>
			<output>
				<port id="2" precision="FP32" names="Mul_15">
					<dim>1</dim>
					<dim>88</dim>
					<dim>20</dim>
					<dim>20</dim>
				</port>
			</output>
		</layer>
		<layer id="363" name="hardswish_58.tmp_0" type="Divide" version="opset1">
			<data auto_broadcast="numpy" m_pythondiv="true" />
			<input>
				<port id="0" precision="FP32">
					<dim>1</dim>
					<dim>88</dim>
					<dim>20</dim>
					<dim>20</dim>
				</port>
				<port id="1" precision="FP32" />
			</input>
			<output>
				<port id="2" precision="FP32" names="hardswish_58.tmp_0">
					<dim>1</dim>
					<dim>88</dim>
					<dim>20</dim>
					<dim>20</dim>
				</port>
			</output>
		</layer>
		<layer id="364" name="3321" type="Const" version="opset1">
			<data element_type="f32" shape="88, 88, 1, 1" offset="93468" size="30976" />
			<output>
				<port id="0" precision="FP32" names="3321">
					<dim>88</dim>
					<dim>88</dim>
					<dim>1</dim>
					<dim>1</dim>
				</port>
			</output>
		</layer>
		<layer id="365" name="Convolution_1648" type="Convolution" version="opset1">
			<data strides="1, 1" dilations="1, 1" pads_begin="0, 0" pads_end="0, 0" auto_pad="explicit" />
			<input>
				<port id="0" precision="FP32">
					<dim>1</dim>
					<dim>88</dim>
					<dim>20</dim>
					<dim>20</dim>
				</port>
				<port id="1" precision="FP32">
					<dim>88</dim>
					<dim>88</dim>
					<dim>1</dim>
					<dim>1</dim>
				</port>
			</input>
			<output>
				<port id="2" precision="FP32">
					<dim>1</dim>
					<dim>88</dim>
					<dim>20</dim>
					<dim>20</dim>
				</port>
			</output>
		</layer>
		<layer id="366" name="3323" type="Const" version="opset1">
			<data element_type="f32" shape="88" offset="124444" size="352" />
			<output>
				<port id="0" precision="FP32" names="3323">
					<dim>88</dim>
				</port>
			</output>
		</layer>
		<layer id="367" name="Constant_1651" type="Const" version="opset1">
			<data element_type="i64" shape="1" offset="960" size="8" />
			<output>
				<port id="0" precision="I64">
					<dim>1</dim>
				</port>
			</output>
		</layer>
		<layer id="368" name="ShapeOf_1666" type="ShapeOf" version="opset3">
			<data output_type="i64" />
			<input>
				<port id="0" precision="FP32">
					<dim>88</dim>
				</port>
			</input>
			<output>
				<port id="1" precision="I64">
					<dim>1</dim>
				</port>
			</output>
		</layer>
		<layer id="369" name="ShapeOf_1649" type="ShapeOf" version="opset3">
			<data output_type="i64" />
			<input>
				<port id="0" precision="FP32">
					<dim>1</dim>
					<dim>88</dim>
					<dim>20</dim>
					<dim>20</dim>
				</port>
			</input>
			<output>
				<port id="1" precision="I64">
					<dim>4</dim>
				</port>
			</output>
		</layer>
		<layer id="370" name="ShapeOf_1650" type="ShapeOf" version="opset3">
			<data output_type="i64" />
			<input>
				<port id="0" precision="I64">
					<dim>4</dim>
				</port>
			</input>
			<output>
				<port id="1" precision="I64">
					<dim>1</dim>
				</port>
			</output>
		</layer>
		<layer id="371" name="Constant_1652" type="Const" version="opset1">
			<data element_type="i64" shape="1" offset="968" size="8" />
			<output>
				<port id="0" precision="I64">
					<dim>1</dim>
				</port>
			</output>
		</layer>
		<layer id="372" name="Subtract_1653" type="Subtract" version="opset1">
			<data auto_broadcast="numpy" />
			<input>
				<port id="0" precision="I64">
					<dim>1</dim>
				</port>
				<port id="1" precision="I64">
					<dim>1</dim>
				</port>
			</input>
			<output>
				<port id="2" precision="I64">
					<dim>1</dim>
				</port>
			</output>
		</layer>
		<layer id="373" name="Broadcast_1654" type="Broadcast" version="opset3">
			<data mode="numpy" />
			<input>
				<port id="0" precision="I64">
					<dim>1</dim>
				</port>
				<port id="1" precision="I64">
					<dim>1</dim>
				</port>
			</input>
			<output>
				<port id="2" precision="I64">
					<dim>2</dim>
				</port>
			</output>
		</layer>
		<layer id="374" name="Concat_1667" type="Concat" version="opset1">
			<data axis="0" />
			<input>
				<port id="0" precision="I64">
					<dim>1</dim>
				</port>
				<port id="1" precision="I64">
					<dim>1</dim>
				</port>
				<port id="2" precision="I64">
					<dim>2</dim>
				</port>
			</input>
			<output>
				<port id="3" precision="I64">
					<dim>4</dim>
				</port>
			</output>
		</layer>
		<layer id="375" name="Reshape_1668" type="Reshape" version="opset1">
			<data special_zero="false" />
			<input>
				<port id="0" precision="FP32">
					<dim>88</dim>
				</port>
				<port id="1" precision="I64">
					<dim>4</dim>
				</port>
			</input>
			<output>
				<port id="2" precision="FP32">
					<dim>1</dim>
					<dim>88</dim>
					<dim>1</dim>
					<dim>1</dim>
				</port>
			</output>
		</layer>
		<layer id="376" name="conv2d_108.tmp_0" type="Add" version="opset1">
			<data auto_broadcast="numpy" />
			<input>
				<port id="0" precision="FP32">
					<dim>1</dim>
					<dim>88</dim>
					<dim>20</dim>
					<dim>20</dim>
				</port>
				<port id="1" precision="FP32">
					<dim>1</dim>
					<dim>88</dim>
					<dim>1</dim>
					<dim>1</dim>
				</port>
			</input>
			<output>
				<port id="2" precision="FP32" names="conv2d_108.tmp_0">
					<dim>1</dim>
					<dim>88</dim>
					<dim>20</dim>
					<dim>20</dim>
				</port>
			</output>
		</layer>
		<layer id="377" name="Add_16" type="Add" version="opset1">
			<data auto_broadcast="numpy" />
			<input>
				<port id="0" precision="FP32">
					<dim>1</dim>
					<dim>88</dim>
					<dim>20</dim>
					<dim>20</dim>
				</port>
				<port id="1" precision="FP32" />
			</input>
			<output>
				<port id="2" precision="FP32" names="Add_16">
					<dim>1</dim>
					<dim>88</dim>
					<dim>20</dim>
					<dim>20</dim>
				</port>
			</output>
		</layer>
		<layer id="378" name="Maximum_1697" type="Maximum" version="opset1">
			<data auto_broadcast="numpy" />
			<input>
				<port id="0" precision="FP32" />
				<port id="1" precision="FP32">
					<dim>1</dim>
					<dim>88</dim>
					<dim>20</dim>
					<dim>20</dim>
				</port>
			</input>
			<output>
				<port id="2" precision="FP32">
					<dim>1</dim>
					<dim>88</dim>
					<dim>20</dim>
					<dim>20</dim>
				</port>
			</output>
		</layer>
		<layer id="379" name="Clip_16" type="Minimum" version="opset1">
			<data auto_broadcast="numpy" />
			<input>
				<port id="0" precision="FP32" />
				<port id="1" precision="FP32">
					<dim>1</dim>
					<dim>88</dim>
					<dim>20</dim>
					<dim>20</dim>
				</port>
			</input>
			<output>
				<port id="2" precision="FP32" names="Clip_16">
					<dim>1</dim>
					<dim>88</dim>
					<dim>20</dim>
					<dim>20</dim>
				</port>
			</output>
		</layer>
		<layer id="380" name="Mul_16" type="Multiply" version="opset1">
			<data auto_broadcast="numpy" />
			<input>
				<port id="0" precision="FP32">
					<dim>1</dim>
					<dim>88</dim>
					<dim>20</dim>
					<dim>20</dim>
				</port>
				<port id="1" precision="FP32">
					<dim>1</dim>
					<dim>88</dim>
					<dim>20</dim>
					<dim>20</dim>
				</port>
			</input>
			<output>
				<port id="2" precision="FP32" names="Mul_16">
					<dim>1</dim>
					<dim>88</dim>
					<dim>20</dim>
					<dim>20</dim>
				</port>
			</output>
		</layer>
		<layer id="381" name="hardswish_59.tmp_0" type="Divide" version="opset1">
			<data auto_broadcast="numpy" m_pythondiv="true" />
			<input>
				<port id="0" precision="FP32">
					<dim>1</dim>
					<dim>88</dim>
					<dim>20</dim>
					<dim>20</dim>
				</port>
				<port id="1" precision="FP32" />
			</input>
			<output>
				<port id="2" precision="FP32" names="hardswish_59.tmp_0">
					<dim>1</dim>
					<dim>88</dim>
					<dim>20</dim>
					<dim>20</dim>
				</port>
			</output>
		</layer>
		<layer id="382" name="3325" type="Const" version="opset1">
			<data element_type="f32" shape="88, 1, 5, 5" offset="124796" size="8800" />
			<output>
				<port id="0" precision="FP32" names="3325">
					<dim>88</dim>
					<dim>1</dim>
					<dim>5</dim>
					<dim>5</dim>
				</port>
			</output>
		</layer>
		<layer id="383" name="Constant_1703" type="Const" version="opset1">
			<data element_type="i64" shape="1" offset="52628" size="8" />
			<output>
				<port id="0" precision="I64">
					<dim>1</dim>
				</port>
			</output>
		</layer>
		<layer id="384" name="ShapeOf_1704" type="ShapeOf" version="opset3">
			<data output_type="i64" />
			<input>
				<port id="0" precision="FP32">
					<dim>88</dim>
					<dim>1</dim>
					<dim>5</dim>
					<dim>5</dim>
				</port>
			</input>
			<output>
				<port id="1" precision="I64">
					<dim>4</dim>
				</port>
			</output>
		</layer>
		<layer id="385" name="Constant_1701" type="Const" version="opset1">
			<data element_type="i64" shape="" offset="1284" size="8" />
			<output>
				<port id="0" precision="I64" />
			</output>
		</layer>
		<layer id="386" name="Constant_1702" type="Const" version="opset1">
			<data element_type="i64" shape="2" offset="1292" size="16" />
			<output>
				<port id="0" precision="I64">
					<dim>2</dim>
				</port>
			</output>
		</layer>
		<layer id="387" name="VariadicSplit_1705" type="VariadicSplit" version="opset1">
			<input>
				<port id="0" precision="I64">
					<dim>4</dim>
				</port>
				<port id="1" precision="I64" />
				<port id="2" precision="I64">
					<dim>2</dim>
				</port>
			</input>
			<output>
				<port id="3" precision="I64">
					<dim>1</dim>
				</port>
				<port id="4" precision="I64">
					<dim>3</dim>
				</port>
			</output>
		</layer>
		<layer id="388" name="Divide_1706" type="Divide" version="opset1">
			<data auto_broadcast="numpy" m_pythondiv="true" />
			<input>
				<port id="0" precision="I64">
					<dim>1</dim>
				</port>
				<port id="1" precision="I64">
					<dim>1</dim>
				</port>
			</input>
			<output>
				<port id="2" precision="I64">
					<dim>1</dim>
				</port>
			</output>
		</layer>
		<layer id="389" name="Concat_1707" type="Concat" version="opset1">
			<data axis="0" />
			<input>
				<port id="0" precision="I64">
					<dim>1</dim>
				</port>
				<port id="1" precision="I64">
					<dim>1</dim>
				</port>
				<port id="2" precision="I64">
					<dim>3</dim>
				</port>
			</input>
			<output>
				<port id="3" precision="I64">
					<dim>5</dim>
				</port>
			</output>
		</layer>
		<layer id="390" name="Reshape_1708" type="Reshape" version="opset1">
			<data special_zero="false" />
			<input>
				<port id="0" precision="FP32">
					<dim>88</dim>
					<dim>1</dim>
					<dim>5</dim>
					<dim>5</dim>
				</port>
				<port id="1" precision="I64">
					<dim>5</dim>
				</port>
			</input>
			<output>
				<port id="2" precision="FP32">
					<dim>88</dim>
					<dim>1</dim>
					<dim>1</dim>
					<dim>5</dim>
					<dim>5</dim>
				</port>
			</output>
		</layer>
		<layer id="391" name="GroupConvolution_1774" type="GroupConvolution" version="opset1">
			<data strides="1, 1" pads_begin="2, 2" pads_end="2, 2" dilations="1, 1" auto_pad="explicit" />
			<input>
				<port id="0" precision="FP32">
					<dim>1</dim>
					<dim>88</dim>
					<dim>20</dim>
					<dim>20</dim>
				</port>
				<port id="1" precision="FP32">
					<dim>88</dim>
					<dim>1</dim>
					<dim>1</dim>
					<dim>5</dim>
					<dim>5</dim>
				</port>
			</input>
			<output>
				<port id="2" precision="FP32">
					<dim>1</dim>
					<dim>88</dim>
					<dim>20</dim>
					<dim>20</dim>
				</port>
			</output>
		</layer>
		<layer id="392" name="3327" type="Const" version="opset1">
			<data element_type="f32" shape="88" offset="133596" size="352" />
			<output>
				<port id="0" precision="FP32" names="3327">
					<dim>88</dim>
				</port>
			</output>
		</layer>
		<layer id="393" name="Constant_1777" type="Const" version="opset1">
			<data element_type="i64" shape="1" offset="960" size="8" />
			<output>
				<port id="0" precision="I64">
					<dim>1</dim>
				</port>
			</output>
		</layer>
		<layer id="394" name="ShapeOf_1792" type="ShapeOf" version="opset3">
			<data output_type="i64" />
			<input>
				<port id="0" precision="FP32">
					<dim>88</dim>
				</port>
			</input>
			<output>
				<port id="1" precision="I64">
					<dim>1</dim>
				</port>
			</output>
		</layer>
…
		<edge from-layer="1514" from-port="0" to-layer="1515" to-port="1" />
		<edge from-layer="1515" from-port="2" to-layer="1516" to-port="1" />
		<edge from-layer="1516" from-port="2" to-layer="1517" to-port="2" />
		<edge from-layer="1517" from-port="3" to-layer="1518" to-port="1" />
		<edge from-layer="1518" from-port="2" to-layer="1519" to-port="1" />
		<edge from-layer="1519" from-port="2" to-layer="1523" to-port="0" />
		<edge from-layer="1519" from-port="2" to-layer="1520" to-port="0" />
		<edge from-layer="1520" from-port="2" to-layer="1521" to-port="1" />
		<edge from-layer="1521" from-port="2" to-layer="1522" to-port="1" />
		<edge from-layer="1522" from-port="2" to-layer="1523" to-port="1" />
		<edge from-layer="1523" from-port="2" to-layer="1524" to-port="0" />
		<edge from-layer="1524" from-port="2" to-layer="1526" to-port="0" />
		<edge from-layer="1525" from-port="0" to-layer="1526" to-port="1" />
		<edge from-layer="1526" from-port="2" to-layer="1530" to-port="0" />
		<edge from-layer="1526" from-port="2" to-layer="1537" to-port="0" />
		<edge from-layer="1527" from-port="0" to-layer="1529" to-port="0" />
		<edge from-layer="1527" from-port="0" to-layer="1536" to-port="0" />
		<edge from-layer="1528" from-port="0" to-layer="1535" to-port="0" />
		<edge from-layer="1528" from-port="0" to-layer="1534" to-port="0" />
		<edge from-layer="1529" from-port="1" to-layer="1535" to-port="1" />
		<edge from-layer="1530" from-port="1" to-layer="1531" to-port="0" />
		<edge from-layer="1531" from-port="1" to-layer="1533" to-port="0" />
		<edge from-layer="1532" from-port="0" to-layer="1533" to-port="1" />
		<edge from-layer="1533" from-port="2" to-layer="1534" to-port="1" />
		<edge from-layer="1534" from-port="2" to-layer="1535" to-port="2" />
		<edge from-layer="1535" from-port="3" to-layer="1536" to-port="1" />
		<edge from-layer="1536" from-port="2" to-layer="1537" to-port="1" />
		<edge from-layer="1537" from-port="2" to-layer="1541" to-port="0" />
		<edge from-layer="1537" from-port="2" to-layer="1538" to-port="0" />
		<edge from-layer="1538" from-port="2" to-layer="1539" to-port="1" />
		<edge from-layer="1539" from-port="2" to-layer="1540" to-port="1" />
		<edge from-layer="1540" from-port="2" to-layer="1541" to-port="1" />
		<edge from-layer="1541" from-port="2" to-layer="1542" to-port="0" />
		<edge from-layer="1542" from-port="2" to-layer="1552" to-port="0" />
		<edge from-layer="1542" from-port="2" to-layer="1774" to-port="0" />
		<edge from-layer="1543" from-port="0" to-layer="1545" to-port="0" />
		<edge from-layer="1543" from-port="0" to-layer="1551" to-port="0" />
		<edge from-layer="1544" from-port="0" to-layer="1549" to-port="1" />
		<edge from-layer="1544" from-port="0" to-layer="1550" to-port="0" />
		<edge from-layer="1545" from-port="1" to-layer="1548" to-port="0" />
		<edge from-layer="1546" from-port="0" to-layer="1548" to-port="1" />
		<edge from-layer="1547" from-port="0" to-layer="1548" to-port="2" />
		<edge from-layer="1548" from-port="3" to-layer="1549" to-port="0" />
		<edge from-layer="1548" from-port="4" to-layer="1550" to-port="2" />
		<edge from-layer="1549" from-port="2" to-layer="1550" to-port="1" />
		<edge from-layer="1550" from-port="3" to-layer="1551" to-port="1" />
		<edge from-layer="1551" from-port="2" to-layer="1552" to-port="1" />
		<edge from-layer="1552" from-port="2" to-layer="1563" to-port="0" />
		<edge from-layer="1552" from-port="2" to-layer="1556" to-port="0" />
		<edge from-layer="1553" from-port="0" to-layer="1562" to-port="0" />
		<edge from-layer="1553" from-port="0" to-layer="1555" to-port="0" />
		<edge from-layer="1554" from-port="0" to-layer="1560" to-port="0" />
		<edge from-layer="1554" from-port="0" to-layer="1561" to-port="0" />
		<edge from-layer="1555" from-port="1" to-layer="1561" to-port="1" />
		<edge from-layer="1556" from-port="1" to-layer="1557" to-port="0" />
		<edge from-layer="1557" from-port="1" to-layer="1559" to-port="0" />
		<edge from-layer="1558" from-port="0" to-layer="1559" to-port="1" />
		<edge from-layer="1559" from-port="2" to-layer="1560" to-port="1" />
		<edge from-layer="1560" from-port="2" to-layer="1561" to-port="2" />
		<edge from-layer="1561" from-port="3" to-layer="1562" to-port="1" />
		<edge from-layer="1562" from-port="2" to-layer="1563" to-port="1" />
		<edge from-layer="1563" from-port="2" to-layer="1567" to-port="0" />
		<edge from-layer="1563" from-port="2" to-layer="1564" to-port="0" />
		<edge from-layer="1564" from-port="2" to-layer="1565" to-port="1" />
		<edge from-layer="1565" from-port="2" to-layer="1566" to-port="1" />
		<edge from-layer="1566" from-port="2" to-layer="1567" to-port="1" />
		<edge from-layer="1567" from-port="2" to-layer="1568" to-port="0" />
		<edge from-layer="1568" from-port="2" to-layer="1570" to-port="0" />
		<edge from-layer="1569" from-port="0" to-layer="1570" to-port="1" />
		<edge from-layer="1570" from-port="2" to-layer="1574" to-port="0" />
		<edge from-layer="1570" from-port="2" to-layer="1581" to-port="0" />
		<edge from-layer="1571" from-port="0" to-layer="1573" to-port="0" />
		<edge from-layer="1571" from-port="0" to-layer="1580" to-port="0" />
		<edge from-layer="1572" from-port="0" to-layer="1578" to-port="0" />
		<edge from-layer="1572" from-port="0" to-layer="1579" to-port="0" />
		<edge from-layer="1573" from-port="1" to-layer="1579" to-port="1" />
		<edge from-layer="1574" from-port="1" to-layer="1575" to-port="0" />
		<edge from-layer="1575" from-port="1" to-layer="1577" to-port="0" />
		<edge from-layer="1576" from-port="0" to-layer="1577" to-port="1" />
		<edge from-layer="1577" from-port="2" to-layer="1578" to-port="1" />
		<edge from-layer="1578" from-port="2" to-layer="1579" to-port="2" />
		<edge from-layer="1579" from-port="3" to-layer="1580" to-port="1" />
		<edge from-layer="1580" from-port="2" to-layer="1581" to-port="1" />
		<edge from-layer="1581" from-port="2" to-layer="1585" to-port="0" />
		<edge from-layer="1581" from-port="2" to-layer="1582" to-port="0" />
		<edge from-layer="1582" from-port="2" to-layer="1583" to-port="1" />
		<edge from-layer="1583" from-port="2" to-layer="1584" to-port="1" />
		<edge from-layer="1584" from-port="2" to-layer="1585" to-port="1" />
		<edge from-layer="1585" from-port="2" to-layer="1586" to-port="0" />
		<edge from-layer="1586" from-port="2" to-layer="1596" to-port="0" />
		<edge from-layer="1587" from-port="0" to-layer="1595" to-port="0" />
		<edge from-layer="1587" from-port="0" to-layer="1589" to-port="0" />
		<edge from-layer="1588" from-port="0" to-layer="1594" to-port="0" />
		<edge from-layer="1588" from-port="0" to-layer="1593" to-port="1" />
		<edge from-layer="1589" from-port="1" to-layer="1592" to-port="0" />
		<edge from-layer="1590" from-port="0" to-layer="1592" to-port="1" />
		<edge from-layer="1591" from-port="0" to-layer="1592" to-port="2" />
		<edge from-layer="1592" from-port="4" to-layer="1594" to-port="2" />
		<edge from-layer="1592" from-port="3" to-layer="1593" to-port="0" />
		<edge from-layer="1593" from-port="2" to-layer="1594" to-port="1" />
		<edge from-layer="1594" from-port="3" to-layer="1595" to-port="1" />
		<edge from-layer="1595" from-port="2" to-layer="1596" to-port="1" />
		<edge from-layer="1596" from-port="2" to-layer="1607" to-port="0" />
		<edge from-layer="1596" from-port="2" to-layer="1600" to-port="0" />
		<edge from-layer="1597" from-port="0" to-layer="1599" to-port="0" />
		<edge from-layer="1597" from-port="0" to-layer="1606" to-port="0" />
		<edge from-layer="1598" from-port="0" to-layer="1604" to-port="0" />
		<edge from-layer="1598" from-port="0" to-layer="1605" to-port="0" />
		<edge from-layer="1599" from-port="1" to-layer="1605" to-port="1" />
		<edge from-layer="1600" from-port="1" to-layer="1601" to-port="0" />
		<edge from-layer="1601" from-port="1" to-layer="1603" to-port="0" />
		<edge from-layer="1602" from-port="0" to-layer="1603" to-port="1" />
		<edge from-layer="1603" from-port="2" to-layer="1604" to-port="1" />
		<edge from-layer="1604" from-port="2" to-layer="1605" to-port="2" />
		<edge from-layer="1605" from-port="3" to-layer="1606" to-port="1" />
		<edge from-layer="1606" from-port="2" to-layer="1607" to-port="1" />
		<edge from-layer="1607" from-port="2" to-layer="1608" to-port="0" />
		<edge from-layer="1607" from-port="2" to-layer="1611" to-port="0" />
		<edge from-layer="1608" from-port="2" to-layer="1609" to-port="1" />
		<edge from-layer="1609" from-port="2" to-layer="1610" to-port="1" />
		<edge from-layer="1610" from-port="2" to-layer="1611" to-port="1" />
		<edge from-layer="1611" from-port="2" to-layer="1612" to-port="0" />
		<edge from-layer="1612" from-port="2" to-layer="1614" to-port="0" />
		<edge from-layer="1613" from-port="0" to-layer="1614" to-port="1" />
		<edge from-layer="1614" from-port="2" to-layer="1618" to-port="0" />
		<edge from-layer="1614" from-port="2" to-layer="1625" to-port="0" />
		<edge from-layer="1615" from-port="0" to-layer="1617" to-port="0" />
		<edge from-layer="1615" from-port="0" to-layer="1624" to-port="0" />
		<edge from-layer="1616" from-port="0" to-layer="1622" to-port="0" />
		<edge from-layer="1616" from-port="0" to-layer="1623" to-port="0" />
		<edge from-layer="1617" from-port="1" to-layer="1623" to-port="1" />
		<edge from-layer="1618" from-port="1" to-layer="1619" to-port="0" />
		<edge from-layer="1619" from-port="1" to-layer="1621" to-port="0" />
		<edge from-layer="1620" from-port="0" to-layer="1621" to-port="1" />
		<edge from-layer="1621" from-port="2" to-layer="1622" to-port="1" />
		<edge from-layer="1622" from-port="2" to-layer="1623" to-port="2" />
		<edge from-layer="1623" from-port="3" to-layer="1624" to-port="1" />
		<edge from-layer="1624" from-port="2" to-layer="1625" to-port="1" />
		<edge from-layer="1625" from-port="2" to-layer="1629" to-port="0" />
		<edge from-layer="1625" from-port="2" to-layer="1626" to-port="0" />
		<edge from-layer="1626" from-port="2" to-layer="1627" to-port="1" />
		<edge from-layer="1627" from-port="2" to-layer="1628" to-port="1" />
		<edge from-layer="1628" from-port="2" to-layer="1629" to-port="1" />
		<edge from-layer="1629" from-port="2" to-layer="1630" to-port="0" />
		<edge from-layer="1630" from-port="2" to-layer="1686" to-port="0" />
		<edge from-layer="1630" from-port="2" to-layer="1632" to-port="0" />
		<edge from-layer="1630" from-port="2" to-layer="1637" to-port="0" />
		<edge from-layer="1630" from-port="2" to-layer="1652" to-port="0" />
		<edge from-layer="1631" from-port="0" to-layer="1636" to-port="0" />
		<edge from-layer="1632" from-port="1" to-layer="1633" to-port="0" />
		<edge from-layer="1633" from-port="1" to-layer="1634" to-port="0" />
		<edge from-layer="1634" from-port="1" to-layer="1636" to-port="1" />
		<edge from-layer="1635" from-port="0" to-layer="1636" to-port="2" />
		<edge from-layer="1636" from-port="3" to-layer="1637" to-port="1" />
		<edge from-layer="1637" from-port="2" to-layer="1639" to-port="0" />
		<edge from-layer="1638" from-port="0" to-layer="1639" to-port="1" />
		<edge from-layer="1639" from-port="2" to-layer="1643" to-port="0" />
		<edge from-layer="1639" from-port="2" to-layer="1650" to-port="0" />
		<edge from-layer="1640" from-port="0" to-layer="1642" to-port="0" />
		<edge from-layer="1640" from-port="0" to-layer="1649" to-port="0" />
		<edge from-layer="1641" from-port="0" to-layer="1647" to-port="0" />
		<edge from-layer="1641" from-port="0" to-layer="1648" to-port="0" />
		<edge from-layer="1642" from-port="1" to-layer="1648" to-port="1" />
		<edge from-layer="1643" from-port="1" to-layer="1644" to-port="0" />
		<edge from-layer="1644" from-port="1" to-layer="1646" to-port="0" />
		<edge from-layer="1645" from-port="0" to-layer="1646" to-port="1" />
		<edge from-layer="1646" from-port="2" to-layer="1647" to-port="1" />
		<edge from-layer="1647" from-port="2" to-layer="1648" to-port="2" />
		<edge from-layer="1648" from-port="3" to-layer="1649" to-port="1" />
		<edge from-layer="1649" from-port="2" to-layer="1650" to-port="1" />
		<edge from-layer="1650" from-port="2" to-layer="1651" to-port="0" />
		<edge from-layer="1651" from-port="1" to-layer="1652" to-port="1" />
		<edge from-layer="1652" from-port="2" to-layer="1654" to-port="0" />
		<edge from-layer="1653" from-port="0" to-layer="1654" to-port="1" />
		<edge from-layer="1654" from-port="2" to-layer="1658" to-port="0" />
		<edge from-layer="1654" from-port="2" to-layer="1665" to-port="0" />
		<edge from-layer="1655" from-port="0" to-layer="1664" to-port="0" />
		<edge from-layer="1655" from-port="0" to-layer="1657" to-port="0" />
		<edge from-layer="1656" from-port="0" to-layer="1662" to-port="0" />
		<edge from-layer="1656" from-port="0" to-layer="1663" to-port="0" />
		<edge from-layer="1657" from-port="1" to-layer="1663" to-port="1" />
		<edge from-layer="1658" from-port="1" to-layer="1659" to-port="0" />
		<edge from-layer="1659" from-port="1" to-layer="1661" to-port="0" />
		<edge from-layer="1660" from-port="0" to-layer="1661" to-port="1" />
		<edge from-layer="1661" from-port="2" to-layer="1662" to-port="1" />
		<edge from-layer="1662" from-port="2" to-layer="1663" to-port="2" />
		<edge from-layer="1663" from-port="3" to-layer="1664" to-port="1" />
		<edge from-layer="1664" from-port="2" to-layer="1665" to-port="1" />
		<edge from-layer="1665" from-port="2" to-layer="1666" to-port="0" />
		<edge from-layer="1665" from-port="2" to-layer="1669" to-port="0" />
		<edge from-layer="1666" from-port="2" to-layer="1667" to-port="1" />
		<edge from-layer="1667" from-port="2" to-layer="1668" to-port="1" />
		<edge from-layer="1668" from-port="2" to-layer="1669" to-port="1" />
		<edge from-layer="1669" from-port="2" to-layer="1670" to-port="0" />
		<edge from-layer="1670" from-port="2" to-layer="1672" to-port="0" />
		<edge from-layer="1670" from-port="2" to-layer="2033" to-port="0" />
		<edge from-layer="1671" from-port="0" to-layer="1672" to-port="1" />
		<edge from-layer="1672" from-port="2" to-layer="1683" to-port="0" />
		<edge from-layer="1672" from-port="2" to-layer="1676" to-port="0" />
		<edge from-layer="1673" from-port="0" to-layer="1675" to-port="0" />
		<edge from-layer="1673" from-port="0" to-layer="1682" to-port="0" />
		<edge from-layer="1674" from-port="0" to-layer="1680" to-port="0" />
		<edge from-layer="1674" from-port="0" to-layer="1681" to-port="0" />
		<edge from-layer="1675" from-port="1" to-layer="1681" to-port="1" />
		<edge from-layer="1676" from-port="1" to-layer="1677" to-port="0" />
		<edge from-layer="1677" from-port="1" to-layer="1679" to-port="0" />
		<edge from-layer="1678" from-port="0" to-layer="1679" to-port="1" />
		<edge from-layer="1679" from-port="2" to-layer="1680" to-port="1" />
		<edge from-layer="1680" from-port="2" to-layer="1681" to-port="2" />
		<edge from-layer="1681" from-port="3" to-layer="1682" to-port="1" />
		<edge from-layer="1682" from-port="2" to-layer="1683" to-port="1" />
		<edge from-layer="1683" from-port="2" to-layer="1684" to-port="0" />
		<edge from-layer="1684" from-port="1" to-layer="1717" to-port="0" />
		<edge from-layer="1685" from-port="0" to-layer="1686" to-port="1" />
		<edge from-layer="1686" from-port="2" to-layer="1690" to-port="0" />
		<edge from-layer="1686" from-port="2" to-layer="1697" to-port="0" />
		<edge from-layer="1687" from-port="0" to-layer="1689" to-port="0" />
		<edge from-layer="1687" from-port="0" to-layer="1696" to-port="0" />
		<edge from-layer="1688" from-port="0" to-layer="1694" to-port="0" />
		<edge from-layer="1688" from-port="0" to-layer="1695" to-port="0" />
		<edge from-layer="1689" from-port="1" to-layer="1695" to-port="1" />
		<edge from-layer="1690" from-port="1" to-layer="1691" to-port="0" />
		<edge from-layer="1691" from-port="1" to-layer="1693" to-port="0" />
		<edge from-layer="1692" from-port="0" to-layer="1693" to-port="1" />
		<edge from-layer="1693" from-port="2" to-layer="1694" to-port="1" />
		<edge from-layer="1694" from-port="2" to-layer="1695" to-port="2" />
		<edge from-layer="1695" from-port="3" to-layer="1696" to-port="1" />
		<edge from-layer="1696" from-port="2" to-layer="1697" to-port="1" />
		<edge from-layer="1697" from-port="2" to-layer="1698" to-port="0" />
		<edge from-layer="1697" from-port="2" to-layer="1701" to-port="0" />
		<edge from-layer="1698" from-port="2" to-layer="1699" to-port="1" />
		<edge from-layer="1699" from-port="2" to-layer="1700" to-port="1" />
		<edge from-layer="1700" from-port="2" to-layer="1701" to-port="1" />
		<edge from-layer="1701" from-port="2" to-layer="1702" to-port="0" />
		<edge from-layer="1702" from-port="2" to-layer="1704" to-port="0" />
		<edge from-layer="1703" from-port="0" to-layer="1704" to-port="1" />
		<edge from-layer="1704" from-port="2" to-layer="1715" to-port="0" />
		<edge from-layer="1704" from-port="2" to-layer="1708" to-port="0" />
		<edge from-layer="1705" from-port="0" to-layer="1714" to-port="0" />
		<edge from-layer="1705" from-port="0" to-layer="1707" to-port="0" />
		<edge from-layer="1706" from-port="0" to-layer="1712" to-port="0" />
		<edge from-layer="1706" from-port="0" to-layer="1713" to-port="0" />
		<edge from-layer="1707" from-port="1" to-layer="1713" to-port="1" />
		<edge from-layer="1708" from-port="1" to-layer="1709" to-port="0" />
		<edge from-layer="1709" from-port="1" to-layer="1711" to-port="0" />
		<edge from-layer="1710" from-port="0" to-layer="1711" to-port="1" />
		<edge from-layer="1711" from-port="2" to-layer="1712" to-port="1" />
		<edge from-layer="1712" from-port="2" to-layer="1713" to-port="2" />
		<edge from-layer="1713" from-port="3" to-layer="1714" to-port="1" />
		<edge from-layer="1714" from-port="2" to-layer="1715" to-port="1" />
		<edge from-layer="1715" from-port="2" to-layer="1716" to-port="0" />
		<edge from-layer="1716" from-port="1" to-layer="1717" to-port="1" />
		<edge from-layer="1717" from-port="2" to-layer="1718" to-port="0" />
		<edge from-layer="1718" from-port="1" to-layer="1720" to-port="0" />
		<edge from-layer="1719" from-port="0" to-layer="1720" to-port="1" />
		<edge from-layer="1720" from-port="2" to-layer="1988" to-port="2" />
		<edge from-layer="1721" from-port="0" to-layer="1723" to-port="0" />
		<edge from-layer="1721" from-port="0" to-layer="1729" to-port="0" />
		<edge from-layer="1722" from-port="0" to-layer="1728" to-port="0" />
		<edge from-layer="1722" from-port="0" to-layer="1727" to-port="1" />
		<edge from-layer="1723" from-port="1" to-layer="1726" to-port="0" />
		<edge from-layer="1724" from-port="0" to-layer="1726" to-port="1" />
		<edge from-layer="1725" from-port="0" to-layer="1726" to-port="2" />
		<edge from-layer="1726" from-port="4" to-layer="1728" to-port="2" />
		<edge from-layer="1726" from-port="3" to-layer="1727" to-port="0" />
		<edge from-layer="1727" from-port="2" to-layer="1728" to-port="1" />
		<edge from-layer="1728" from-port="3" to-layer="1729" to-port="1" />
		<edge from-layer="1729" from-port="2" to-layer="1730" to-port="1" />
		<edge from-layer="1730" from-port="2" to-layer="1734" to-port="0" />
		<edge from-layer="1730" from-port="2" to-layer="1741" to-port="0" />
		<edge from-layer="1731" from-port="0" to-layer="1740" to-port="0" />
		<edge from-layer="1731" from-port="0" to-layer="1733" to-port="0" />
		<edge from-layer="1732" from-port="0" to-layer="1739" to-port="0" />
		<edge from-layer="1732" from-port="0" to-layer="1738" to-port="0" />
		<edge from-layer="1733" from-port="1" to-layer="1739" to-port="1" />
		<edge from-layer="1734" from-port="1" to-layer="1735" to-port="0" />
		<edge from-layer="1735" from-port="1" to-layer="1737" to-port="0" />
		<edge from-layer="1736" from-port="0" to-layer="1737" to-port="1" />
		<edge from-layer="1737" from-port="2" to-layer="1738" to-port="1" />
		<edge from-layer="1738" from-port="2" to-layer="1739" to-port="2" />
		<edge from-layer="1739" from-port="3" to-layer="1740" to-port="1" />
		<edge from-layer="1740" from-port="2" to-layer="1741" to-port="1" />
		<edge from-layer="1741" from-port="2" to-layer="1745" to-port="0" />
		<edge from-layer="1741" from-port="2" to-layer="1742" to-port="0" />
		<edge from-layer="1742" from-port="2" to-layer="1743" to-port="1" />
		<edge from-layer="1743" from-port="2" to-layer="1744" to-port="1" />
		<edge from-layer="1744" from-port="2" to-layer="1745" to-port="1" />
		<edge from-layer="1745" from-port="2" to-layer="1746" to-port="0" />
		<edge from-layer="1746" from-port="2" to-layer="1748" to-port="0" />
		<edge from-layer="1747" from-port="0" to-layer="1748" to-port="1" />
		<edge from-layer="1748" from-port="2" to-layer="1759" to-port="0" />
		<edge from-layer="1748" from-port="2" to-layer="1752" to-port="0" />
		<edge from-layer="1749" from-port="0" to-layer="1758" to-port="0" />
		<edge from-layer="1749" from-port="0" to-layer="1751" to-port="0" />
		<edge from-layer="1750" from-port="0" to-layer="1756" to-port="0" />
		<edge from-layer="1750" from-port="0" to-layer="1757" to-port="0" />
		<edge from-layer="1751" from-port="1" to-layer="1757" to-port="1" />
		<edge from-layer="1752" from-port="1" to-layer="1753" to-port="0" />
		<edge from-layer="1753" from-port="1" to-layer="1755" to-port="0" />
		<edge from-layer="1754" from-port="0" to-layer="1755" to-port="1" />
		<edge from-layer="1755" from-port="2" to-layer="1756" to-port="1" />
		<edge from-layer="1756" from-port="2" to-layer="1757" to-port="2" />
		<edge from-layer="1757" from-port="3" to-layer="1758" to-port="1" />
		<edge from-layer="1758" from-port="2" to-layer="1759" to-port="1" />
		<edge from-layer="1759" from-port="2" to-layer="1760" to-port="0" />
		<edge from-layer="1759" from-port="2" to-layer="1763" to-port="0" />
		<edge from-layer="1760" from-port="2" to-layer="1761" to-port="1" />
		<edge from-layer="1761" from-port="2" to-layer="1762" to-port="1" />
		<edge from-layer="1762" from-port="2" to-layer="1763" to-port="1" />
		<edge from-layer="1763" from-port="2" to-layer="1764" to-port="0" />
		<edge from-layer="1764" from-port="2" to-layer="1809" to-port="0" />
		<edge from-layer="1765" from-port="0" to-layer="1773" to-port="0" />
		<edge from-layer="1765" from-port="0" to-layer="1767" to-port="0" />
		<edge from-layer="1766" from-port="0" to-layer="1771" to-port="1" />
		<edge from-layer="1766" from-port="0" to-layer="1772" to-port="0" />
		<edge from-layer="1767" from-port="1" to-layer="1770" to-port="0" />
		<edge from-layer="1768" from-port="0" to-layer="1770" to-port="1" />
		<edge from-layer="1769" from-port="0" to-layer="1770" to-port="2" />
		<edge from-layer="1770" from-port="4" to-layer="1772" to-port="2" />
		<edge from-layer="1770" from-port="3" to-layer="1771" to-port="0" />
		<edge from-layer="1771" from-port="2" to-layer="1772" to-port="1" />
		<edge from-layer="1772" from-port="3" to-layer="1773" to-port="1" />
		<edge from-layer="1773" from-port="2" to-layer="1774" to-port="1" />
		<edge from-layer="1774" from-port="2" to-layer="1778" to-port="0" />
		<edge from-layer="1774" from-port="2" to-layer="1785" to-port="0" />
		<edge from-layer="1775" from-port="0" to-layer="1777" to-port="0" />
		<edge from-layer="1775" from-port="0" to-layer="1784" to-port="0" />
		<edge from-layer="1776" from-port="0" to-layer="1783" to-port="0" />
		<edge from-layer="1776" from-port="0" to-layer="1782" to-port="0" />
		<edge from-layer="1777" from-port="1" to-layer="1783" to-port="1" />
		<edge from-layer="1778" from-port="1" to-layer="1779" to-port="0" />
		<edge from-layer="1779" from-port="1" to-layer="1781" to-port="0" />
		<edge from-layer="1780" from-port="0" to-layer="1781" to-port="1" />
		<edge from-layer="1781" from-port="2" to-layer="1782" to-port="1" />
		<edge from-layer="1782" from-port="2" to-layer="1783" to-port="2" />
		<edge from-layer="1783" from-port="3" to-layer="1784" to-port="1" />
		<edge from-layer="1784" from-port="2" to-layer="1785" to-port="1" />
		<edge from-layer="1785" from-port="2" to-layer="1786" to-port="0" />
		<edge from-layer="1785" from-port="2" to-layer="1789" to-port="0" />
		<edge from-layer="1786" from-port="2" to-layer="1787" to-port="1" />
		<edge from-layer="1787" from-port="2" to-layer="1788" to-port="1" />
		<edge from-layer="1788" from-port="2" to-layer="1789" to-port="1" />
		<edge from-layer="1789" from-port="2" to-layer="1790" to-port="0" />
		<edge from-layer="1790" from-port="2" to-layer="1792" to-port="0" />
		<edge from-layer="1791" from-port="0" to-layer="1792" to-port="1" />
		<edge from-layer="1792" from-port="2" to-layer="1803" to-port="0" />
		<edge from-layer="1792" from-port="2" to-layer="1796" to-port="0" />
		<edge from-layer="1793" from-port="0" to-layer="1795" to-port="0" />
		<edge from-layer="1793" from-port="0" to-layer="1802" to-port="0" />
		<edge from-layer="1794" from-port="0" to-layer="1800" to-port="0" />
		<edge from-layer="1794" from-port="0" to-layer="1801" to-port="0" />
		<edge from-layer="1795" from-port="1" to-layer="1801" to-port="1" />
		<edge from-layer="1796" from-port="1" to-layer="1797" to-port="0" />
		<edge from-layer="1797" from-port="1" to-layer="1799" to-port="0" />
		<edge from-layer="1798" from-port="0" to-layer="1799" to-port="1" />
		<edge from-layer="1799" from-port="2" to-layer="1800" to-port="1" />
		<edge from-layer="1800" from-port="2" to-layer="1801" to-port="2" />
		<edge from-layer="1801" from-port="3" to-layer="1802" to-port="1" />
		<edge from-layer="1802" from-port="2" to-layer="1803" to-port="1" />
		<edge from-layer="1803" from-port="2" to-layer="1807" to-port="0" />
		<edge from-layer="1803" from-port="2" to-layer="1804" to-port="0" />
		<edge from-layer="1804" from-port="2" to-layer="1805" to-port="1" />
		<edge from-layer="1805" from-port="2" to-layer="1806" to-port="1" />
		<edge from-layer="1806" from-port="2" to-layer="1807" to-port="1" />
		<edge from-layer="1807" from-port="2" to-layer="1808" to-port="0" />
		<edge from-layer="1808" from-port="2" to-layer="1809" to-port="1" />
		<edge from-layer="1809" from-port="2" to-layer="1819" to-port="0" />
		<edge from-layer="1810" from-port="0" to-layer="1812" to-port="0" />
		<edge from-layer="1810" from-port="0" to-layer="1818" to-port="0" />
		<edge from-layer="1811" from-port="0" to-layer="1816" to-port="1" />
		<edge from-layer="1811" from-port="0" to-layer="1817" to-port="0" />
		<edge from-layer="1812" from-port="1" to-layer="1815" to-port="0" />
		<edge from-layer="1813" from-port="0" to-layer="1815" to-port="1" />
		<edge from-layer="1814" from-port="0" to-layer="1815" to-port="2" />
		<edge from-layer="1815" from-port="3" to-layer="1816" to-port="0" />
		<edge from-layer="1815" from-port="4" to-layer="1817" to-port="2" />
		<edge from-layer="1816" from-port="2" to-layer="1817" to-port="1" />
		<edge from-layer="1817" from-port="3" to-layer="1818" to-port="1" />
		<edge from-layer="1818" from-port="2" to-layer="1819" to-port="1" />
		<edge from-layer="1819" from-port="2" to-layer="1830" to-port="0" />
		<edge from-layer="1819" from-port="2" to-layer="1823" to-port="0" />
		<edge from-layer="1820" from-port="0" to-layer="1829" to-port="0" />
		<edge from-layer="1820" from-port="0" to-layer="1822" to-port="0" />
		<edge from-layer="1821" from-port="0" to-layer="1828" to-port="0" />
		<edge from-layer="1821" from-port="0" to-layer="1827" to-port="0" />
		<edge from-layer="1822" from-port="1" to-layer="1828" to-port="1" />
		<edge from-layer="1823" from-port="1" to-layer="1824" to-port="0" />
		<edge from-layer="1824" from-port="1" to-layer="1826" to-port="0" />
		<edge from-layer="1825" from-port="0" to-layer="1826" to-port="1" />
		<edge from-layer="1826" from-port="2" to-layer="1827" to-port="1" />
		<edge from-layer="1827" from-port="2" to-layer="1828" to-port="2" />
		<edge from-layer="1828" from-port="3" to-layer="1829" to-port="1" />
		<edge from-layer="1829" from-port="2" to-layer="1830" to-port="1" />
		<edge from-layer="1830" from-port="2" to-layer="1831" to-port="0" />
		<edge from-layer="1830" from-port="2" to-layer="1834" to-port="0" />
		<edge from-layer="1831" from-port="2" to-layer="1832" to-port="1" />
		<edge from-layer="1832" from-port="2" to-layer="1833" to-port="1" />
		<edge from-layer="1833" from-port="2" to-layer="1834" to-port="1" />
		<edge from-layer="1834" from-port="2" to-layer="1835" to-port="0" />
		<edge from-layer="1835" from-port="2" to-layer="1837" to-port="0" />
		<edge from-layer="1836" from-port="0" to-layer="1837" to-port="1" />
		<edge from-layer="1837" from-port="2" to-layer="1841" to-port="0" />
		<edge from-layer="1837" from-port="2" to-layer="1848" to-port="0" />
		<edge from-layer="1838" from-port="0" to-layer="1840" to-port="0" />
		<edge from-layer="1838" from-port="0" to-layer="1847" to-port="0" />
		<edge from-layer="1839" from-port="0" to-layer="1845" to-port="0" />
		<edge from-layer="1839" from-port="0" to-layer="1846" to-port="0" />
		<edge from-layer="1840" from-port="1" to-layer="1846" to-port="1" />
		<edge from-layer="1841" from-port="1" to-layer="1842" to-port="0" />
		<edge from-layer="1842" from-port="1" to-layer="1844" to-port="0" />
		<edge from-layer="1843" from-port="0" to-layer="1844" to-port="1" />
		<edge from-layer="1844" from-port="2" to-layer="1845" to-port="1" />
		<edge from-layer="1845" from-port="2" to-layer="1846" to-port="2" />
		<edge from-layer="1846" from-port="3" to-layer="1847" to-port="1" />
		<edge from-layer="1847" from-port="2" to-layer="1848" to-port="1" />
		<edge from-layer="1848" from-port="2" to-layer="1852" to-port="0" />
		<edge from-layer="1848" from-port="2" to-layer="1849" to-port="0" />
		<edge from-layer="1849" from-port="2" to-layer="1850" to-port="1" />
		<edge from-layer="1850" from-port="2" to-layer="1851" to-port="1" />
		<edge from-layer="1851" from-port="2" to-layer="1852" to-port="1" />
		<edge from-layer="1852" from-port="2" to-layer="1853" to-port="0" />
		<edge from-layer="1853" from-port="2" to-layer="1863" to-port="0" />
		<edge from-layer="1854" from-port="0" to-layer="1856" to-port="0" />
		<edge from-layer="1854" from-port="0" to-layer="1862" to-port="0" />
		<edge from-layer="1855" from-port="0" to-layer="1860" to-port="1" />
		<edge from-layer="1855" from-port="0" to-layer="1861" to-port="0" />
		<edge from-layer="1856" from-port="1" to-layer="1859" to-port="0" />
		<edge from-layer="1857" from-port="0" to-layer="1859" to-port="1" />
		<edge from-layer="1858" from-port="0" to-layer="1859" to-port="2" />
		<edge from-layer="1859" from-port="4" to-layer="1861" to-port="2" />
		<edge from-layer="1859" from-port="3" to-layer="1860" to-port="0" />
		<edge from-layer="1860" from-port="2" to-layer="1861" to-port="1" />
		<edge from-layer="1861" from-port="3" to-layer="1862" to-port="1" />
		<edge from-layer="1862" from-port="2" to-layer="1863" to-port="1" />
		<edge from-layer="1863" from-port="2" to-layer="1867" to-port="0" />
		<edge from-layer="1863" from-port="2" to-layer="1874" to-port="0" />
		<edge from-layer="1864" from-port="0" to-layer="1866" to-port="0" />
		<edge from-layer="1864" from-port="0" to-layer="1873" to-port="0" />
		<edge from-layer="1865" from-port="0" to-layer="1872" to-port="0" />
		<edge from-layer="1865" from-port="0" to-layer="1871" to-port="0" />
		<edge from-layer="1866" from-port="1" to-layer="1872" to-port="1" />
		<edge from-layer="1867" from-port="1" to-layer="1868" to-port="0" />
		<edge from-layer="1868" from-port="1" to-layer="1870" to-port="0" />
		<edge from-layer="1869" from-port="0" to-layer="1870" to-port="1" />
		<edge from-layer="1870" from-port="2" to-layer="1871" to-port="1" />
		<edge from-layer="1871" from-port="2" to-layer="1872" to-port="2" />
		<edge from-layer="1872" from-port="3" to-layer="1873" to-port="1" />
		<edge from-layer="1873" from-port="2" to-layer="1874" to-port="1" />
		<edge from-layer="1874" from-port="2" to-layer="1878" to-port="0" />
		<edge from-layer="1874" from-port="2" to-layer="1875" to-port="0" />
		<edge from-layer="1875" from-port="2" to-layer="1876" to-port="1" />
		<edge from-layer="1876" from-port="2" to-layer="1877" to-port="1" />
		<edge from-layer="1877" from-port="2" to-layer="1878" to-port="1" />
		<edge from-layer="1878" from-port="2" to-layer="1879" to-port="0" />
		<edge from-layer="1879" from-port="2" to-layer="1881" to-port="0" />
		<edge from-layer="1880" from-port="0" to-layer="1881" to-port="1" />
		<edge from-layer="1881" from-port="2" to-layer="1885" to-port="0" />
		<edge from-layer="1881" from-port="2" to-layer="1892" to-port="0" />
		<edge from-layer="1882" from-port="0" to-layer="1891" to-port="0" />
		<edge from-layer="1882" from-port="0" to-layer="1884" to-port="0" />
		<edge from-layer="1883" from-port="0" to-layer="1890" to-port="0" />
		<edge from-layer="1883" from-port="0" to-layer="1889" to-port="0" />
		<edge from-layer="1884" from-port="1" to-layer="1890" to-port="1" />
		<edge from-layer="1885" from-port="1" to-layer="1886" to-port="0" />
		<edge from-layer="1886" from-port="1" to-layer="1888" to-port="0" />
		<edge from-layer="1887" from-port="0" to-layer="1888" to-port="1" />
		<edge from-layer="1888" from-port="2" to-layer="1889" to-port="1" />
		<edge from-layer="1889" from-port="2" to-layer="1890" to-port="2" />
		<edge from-layer="1890" from-port="3" to-layer="1891" to-port="1" />
		<edge from-layer="1891" from-port="2" to-layer="1892" to-port="1" />
		<edge from-layer="1892" from-port="2" to-layer="1896" to-port="0" />
		<edge from-layer="1892" from-port="2" to-layer="1893" to-port="0" />
		<edge from-layer="1893" from-port="2" to-layer="1894" to-port="1" />
		<edge from-layer="1894" from-port="2" to-layer="1895" to-port="1" />
		<edge from-layer="1895" from-port="2" to-layer="1896" to-port="1" />
		<edge from-layer="1896" from-port="2" to-layer="1897" to-port="0" />
		<edge from-layer="1897" from-port="2" to-layer="1904" to-port="0" />
		<edge from-layer="1897" from-port="2" to-layer="1953" to-port="0" />
		<edge from-layer="1897" from-port="2" to-layer="1899" to-port="0" />
		<edge from-layer="1897" from-port="2" to-layer="1919" to-port="0" />
		<edge from-layer="1898" from-port="0" to-layer="1903" to-port="0" />
		<edge from-layer="1899" from-port="1" to-layer="1900" to-port="0" />
		<edge from-layer="1900" from-port="1" to-layer="1901" to-port="0" />
		<edge from-layer="1901" from-port="1" to-layer="1903" to-port="1" />
		<edge from-layer="1902" from-port="0" to-layer="1903" to-port="2" />
		<edge from-layer="1903" from-port="3" to-layer="1904" to-port="1" />
		<edge from-layer="1904" from-port="2" to-layer="1906" to-port="0" />
		<edge from-layer="1905" from-port="0" to-layer="1906" to-port="1" />
		<edge from-layer="1906" from-port="2" to-layer="1917" to-port="0" />
		<edge from-layer="1906" from-port="2" to-layer="1910" to-port="0" />
		<edge from-layer="1907" from-port="0" to-layer="1916" to-port="0" />
		<edge from-layer="1907" from-port="0" to-layer="1909" to-port="0" />
		<edge from-layer="1908" from-port="0" to-layer="1914" to-port="0" />
		<edge from-layer="1908" from-port="0" to-layer="1915" to-port="0" />
		<edge from-layer="1909" from-port="1" to-layer="1915" to-port="1" />
		<edge from-layer="1910" from-port="1" to-layer="1911" to-port="0" />
		<edge from-layer="1911" from-port="1" to-layer="1913" to-port="0" />
		<edge from-layer="1912" from-port="0" to-layer="1913" to-port="1" />
		<edge from-layer="1913" from-port="2" to-layer="1914" to-port="1" />
		<edge from-layer="1914" from-port="2" to-layer="1915" to-port="2" />
		<edge from-layer="1915" from-port="3" to-layer="1916" to-port="1" />
		<edge from-layer="1916" from-port="2" to-layer="1917" to-port="1" />
		<edge from-layer="1917" from-port="2" to-layer="1918" to-port="0" />
		<edge from-layer="1918" from-port="1" to-layer="1919" to-port="1" />
		<edge from-layer="1919" from-port="2" to-layer="1921" to-port="0" />
		<edge from-layer="1920" from-port="0" to-layer="1921" to-port="1" />
		<edge from-layer="1921" from-port="2" to-layer="1932" to-port="0" />
		<edge from-layer="1921" from-port="2" to-layer="1925" to-port="0" />
		<edge from-layer="1922" from-port="0" to-layer="1931" to-port="0" />
		<edge from-layer="1922" from-port="0" to-layer="1924" to-port="0" />
		<edge from-layer="1923" from-port="0" to-layer="1929" to-port="0" />
		<edge from-layer="1923" from-port="0" to-layer="1930" to-port="0" />
		<edge from-layer="1924" from-port="1" to-layer="1930" to-port="1" />
		<edge from-layer="1925" from-port="1" to-layer="1926" to-port="0" />
		<edge from-layer="1926" from-port="1" to-layer="1928" to-port="0" />
		<edge from-layer="1927" from-port="0" to-layer="1928" to-port="1" />
		<edge from-layer="1928" from-port="2" to-layer="1929" to-port="1" />
		<edge from-layer="1929" from-port="2" to-layer="1930" to-port="2" />
		<edge from-layer="1930" from-port="3" to-layer="1931" to-port="1" />
		<edge from-layer="1931" from-port="2" to-layer="1932" to-port="1" />
		<edge from-layer="1932" from-port="2" to-layer="1933" to-port="0" />
		<edge from-layer="1932" from-port="2" to-layer="1936" to-port="0" />
		<edge from-layer="1933" from-port="2" to-layer="1934" to-port="1" />
		<edge from-layer="1934" from-port="2" to-layer="1935" to-port="1" />
		<edge from-layer="1935" from-port="2" to-layer="1936" to-port="1" />
		<edge from-layer="1936" from-port="2" to-layer="1937" to-port="0" />
		<edge from-layer="1937" from-port="2" to-layer="1939" to-port="0" />
		<edge from-layer="1937" from-port="2" to-layer="2053" to-port="0" />
		<edge from-layer="1938" from-port="0" to-layer="1939" to-port="1" />
		<edge from-layer="1939" from-port="2" to-layer="1950" to-port="0" />
		<edge from-layer="1939" from-port="2" to-layer="1943" to-port="0" />
		<edge from-layer="1940" from-port="0" to-layer="1949" to-port="0" />
		<edge from-layer="1940" from-port="0" to-layer="1942" to-port="0" />
		<edge from-layer="1941" from-port="0" to-layer="1948" to-port="0" />
		<edge from-layer="1941" from-port="0" to-layer="1947" to-port="0" />
		<edge from-layer="1942" from-port="1" to-layer="1948" to-port="1" />
		<edge from-layer="1943" from-port="1" to-layer="1944" to-port="0" />
		<edge from-layer="1944" from-port="1" to-layer="1946" to-port="0" />
		<edge from-layer="1945" from-port="0" to-layer="1946" to-port="1" />
		<edge from-layer="1946" from-port="2" to-layer="1947" to-port="1" />
		<edge from-layer="1947" from-port="2" to-layer="1948" to-port="2" />
		<edge from-layer="1948" from-port="3" to-layer="1949" to-port="1" />
		<edge from-layer="1949" from-port="2" to-layer="1950" to-port="1" />
		<edge from-layer="1950" from-port="2" to-layer="1951" to-port="0" />
		<edge from-layer="1951" from-port="1" to-layer="1984" to-port="0" />
		<edge from-layer="1952" from-port="0" to-layer="1953" to-port="1" />
		<edge from-layer="1953" from-port="2" to-layer="1964" to-port="0" />
		<edge from-layer="1953" from-port="2" to-layer="1957" to-port="0" />
		<edge from-layer="1954" from-port="0" to-layer="1963" to-port="0" />
		<edge from-layer="1954" from-port="0" to-layer="1956" to-port="0" />
		<edge from-layer="1955" from-port="0" to-layer="1962" to-port="0" />
		<edge from-layer="1955" from-port="0" to-layer="1961" to-port="0" />
		<edge from-layer="1956" from-port="1" to-layer="1962" to-port="1" />
		<edge from-layer="1957" from-port="1" to-layer="1958" to-port="0" />
		<edge from-layer="1958" from-port="1" to-layer="1960" to-port="0" />
		<edge from-layer="1959" from-port="0" to-layer="1960" to-port="1" />
		<edge from-layer="1960" from-port="2" to-layer="1961" to-port="1" />
		<edge from-layer="1961" from-port="2" to-layer="1962" to-port="2" />
		<edge from-layer="1962" from-port="3" to-layer="1963" to-port="1" />
		<edge from-layer="1963" from-port="2" to-layer="1964" to-port="1" />
		<edge from-layer="1964" from-port="2" to-layer="1965" to-port="0" />
		<edge from-layer="1964" from-port="2" to-layer="1968" to-port="0" />
		<edge from-layer="1965" from-port="2" to-layer="1966" to-port="1" />
		<edge from-layer="1966" from-port="2" to-layer="1967" to-port="1" />
		<edge from-layer="1967" from-port="2" to-layer="1968" to-port="1" />
		<edge from-layer="1968" from-port="2" to-layer="1969" to-port="0" />
		<edge from-layer="1969" from-port="2" to-layer="1971" to-port="0" />
		<edge from-layer="1970" from-port="0" to-layer="1971" to-port="1" />
		<edge from-layer="1971" from-port="2" to-layer="1982" to-port="0" />
		<edge from-layer="1971" from-port="2" to-layer="1975" to-port="0" />
		<edge from-layer="1972" from-port="0" to-layer="1981" to-port="0" />
		<edge from-layer="1972" from-port="0" to-layer="1974" to-port="0" />
		<edge from-layer="1973" from-port="0" to-layer="1979" to-port="0" />
		<edge from-layer="1973" from-port="0" to-layer="1980" to-port="0" />
		<edge from-layer="1974" from-port="1" to-layer="1980" to-port="1" />
		<edge from-layer="1975" from-port="1" to-layer="1976" to-port="0" />
		<edge from-layer="1976" from-port="1" to-layer="1978" to-port="0" />
		<edge from-layer="1977" from-port="0" to-layer="1978" to-port="1" />
		<edge from-layer="1978" from-port="2" to-layer="1979" to-port="1" />
		<edge from-layer="1979" from-port="2" to-layer="1980" to-port="2" />
		<edge from-layer="1980" from-port="3" to-layer="1981" to-port="1" />
		<edge from-layer="1981" from-port="2" to-layer="1982" to-port="1" />
		<edge from-layer="1982" from-port="2" to-layer="1983" to-port="0" />
		<edge from-layer="1983" from-port="1" to-layer="1984" to-port="1" />
		<edge from-layer="1984" from-port="2" to-layer="1985" to-port="0" />
		<edge from-layer="1985" from-port="1" to-layer="1987" to-port="0" />
		<edge from-layer="1986" from-port="0" to-layer="1987" to-port="1" />
		<edge from-layer="1987" from-port="2" to-layer="1988" to-port="3" />
		<edge from-layer="1988" from-port="4" to-layer="1989" to-port="0" />
		<edge from-layer="1990" from-port="0" to-layer="1991" to-port="1" />
		<edge from-layer="1991" from-port="2" to-layer="1995" to-port="0" />
		<edge from-layer="1991" from-port="2" to-layer="2002" to-port="0" />
		<edge from-layer="1992" from-port="0" to-layer="2001" to-port="0" />
		<edge from-layer="1992" from-port="0" to-layer="1994" to-port="0" />
		<edge from-layer="1993" from-port="0" to-layer="2000" to-port="0" />
		<edge from-layer="1993" from-port="0" to-layer="1999" to-port="0" />
		<edge from-layer="1994" from-port="1" to-layer="2000" to-port="1" />
		<edge from-layer="1995" from-port="1" to-layer="1996" to-port="0" />
		<edge from-layer="1996" from-port="1" to-layer="1998" to-port="0" />
		<edge from-layer="1997" from-port="0" to-layer="1998" to-port="1" />
		<edge from-layer="1998" from-port="2" to-layer="1999" to-port="1" />
		<edge from-layer="1999" from-port="2" to-layer="2000" to-port="2" />
		<edge from-layer="2000" from-port="3" to-layer="2001" to-port="1" />
		<edge from-layer="2001" from-port="2" to-layer="2002" to-port="1" />
		<edge from-layer="2002" from-port="2" to-layer="2004" to-port="0" />
		<edge from-layer="2003" from-port="0" to-layer="2004" to-port="1" />
		<edge from-layer="2004" from-port="2" to-layer="2006" to-port="0" />
		<edge from-layer="2005" from-port="0" to-layer="2047" to-port="1" />
		<edge from-layer="2005" from-port="0" to-layer="2067" to-port="1" />
		<edge from-layer="2005" from-port="0" to-layer="2006" to-port="1" />
		<edge from-layer="2005" from-port="0" to-layer="2027" to-port="1" />
		<edge from-layer="2006" from-port="2" to-layer="2007" to-port="0" />
		<edge from-layer="2007" from-port="1" to-layer="2009" to-port="0" />
		<edge from-layer="2008" from-port="0" to-layer="2069" to-port="1" />
		<edge from-layer="2008" from-port="0" to-layer="2049" to-port="1" />
		<edge from-layer="2008" from-port="0" to-layer="2029" to-port="1" />
		<edge from-layer="2008" from-port="0" to-layer="2009" to-port="1" />
		<edge from-layer="2009" from-port="2" to-layer="2011" to-port="0" />
		<edge from-layer="2010" from-port="0" to-layer="2011" to-port="1" />
		<edge from-layer="2011" from-port="2" to-layer="2072" to-port="0" />
		<edge from-layer="2012" from-port="0" to-layer="2013" to-port="1" />
		<edge from-layer="2013" from-port="2" to-layer="2024" to-port="0" />
		<edge from-layer="2013" from-port="2" to-layer="2017" to-port="0" />
		<edge from-layer="2014" from-port="0" to-layer="2016" to-port="0" />
		<edge from-layer="2014" from-port="0" to-layer="2023" to-port="0" />
		<edge from-layer="2015" from-port="0" to-layer="2021" to-port="0" />
		<edge from-layer="2015" from-port="0" to-layer="2022" to-port="0" />
		<edge from-layer="2016" from-port="1" to-layer="2022" to-port="1" />
		<edge from-layer="2017" from-port="1" to-layer="2018" to-port="0" />
		<edge from-layer="2018" from-port="1" to-layer="2020" to-port="0" />
		<edge from-layer="2019" from-port="0" to-layer="2020" to-port="1" />
		<edge from-layer="2020" from-port="2" to-layer="2021" to-port="1" />
		<edge from-layer="2021" from-port="2" to-layer="2022" to-port="2" />
		<edge from-layer="2022" from-port="3" to-layer="2023" to-port="1" />
		<edge from-layer="2023" from-port="2" to-layer="2024" to-port="1" />
		<edge from-layer="2024" from-port="2" to-layer="2026" to-port="0" />
		<edge from-layer="2025" from-port="0" to-layer="2026" to-port="1" />
		<edge from-layer="2026" from-port="2" to-layer="2027" to-port="0" />
		<edge from-layer="2027" from-port="2" to-layer="2028" to-port="0" />
		<edge from-layer="2028" from-port="1" to-layer="2029" to-port="0" />
		<edge from-layer="2029" from-port="2" to-layer="2031" to-port="0" />
		<edge from-layer="2030" from-port="0" to-layer="2031" to-port="1" />
		<edge from-layer="2031" from-port="2" to-layer="2072" to-port="1" />
		<edge from-layer="2032" from-port="0" to-layer="2033" to-port="1" />
		<edge from-layer="2033" from-port="2" to-layer="2044" to-port="0" />
		<edge from-layer="2033" from-port="2" to-layer="2037" to-port="0" />
		<edge from-layer="2034" from-port="0" to-layer="2043" to-port="0" />
		<edge from-layer="2034" from-port="0" to-layer="2036" to-port="0" />
		<edge from-layer="2035" from-port="0" to-layer="2042" to-port="0" />
		<edge from-layer="2035" from-port="0" to-layer="2041" to-port="0" />
		<edge from-layer="2036" from-port="1" to-layer="2042" to-port="1" />
		<edge from-layer="2037" from-port="1" to-layer="2038" to-port="0" />
		<edge from-layer="2038" from-port="1" to-layer="2040" to-port="0" />
		<edge from-layer="2039" from-port="0" to-layer="2040" to-port="1" />
		<edge from-layer="2040" from-port="2" to-layer="2041" to-port="1" />
		<edge from-layer="2041" from-port="2" to-layer="2042" to-port="2" />
		<edge from-layer="2042" from-port="3" to-layer="2043" to-port="1" />
		<edge from-layer="2043" from-port="2" to-layer="2044" to-port="1" />
		<edge from-layer="2044" from-port="2" to-layer="2046" to-port="0" />
		<edge from-layer="2045" from-port="0" to-layer="2046" to-port="1" />
		<edge from-layer="2046" from-port="2" to-layer="2047" to-port="0" />
		<edge from-layer="2047" from-port="2" to-layer="2048" to-port="0" />
		<edge from-layer="2048" from-port="1" to-layer="2049" to-port="0" />
		<edge from-layer="2049" from-port="2" to-layer="2051" to-port="0" />
		<edge from-layer="2050" from-port="0" to-layer="2051" to-port="1" />
		<edge from-layer="2051" from-port="2" to-layer="2072" to-port="2" />
		<edge from-layer="2052" from-port="0" to-layer="2053" to-port="1" />
		<edge from-layer="2053" from-port="2" to-layer="2057" to-port="0" />
		<edge from-layer="2053" from-port="2" to-layer="2064" to-port="0" />
		<edge from-layer="2054" from-port="0" to-layer="2063" to-port="0" />
		<edge from-layer="2054" from-port="0" to-layer="2056" to-port="0" />
		<edge from-layer="2055" from-port="0" to-layer="2062" to-port="0" />
		<edge from-layer="2055" from-port="0" to-layer="2061" to-port="0" />
		<edge from-layer="2056" from-port="1" to-layer="2062" to-port="1" />
		<edge from-layer="2057" from-port="1" to-layer="2058" to-port="0" />
		<edge from-layer="2058" from-port="1" to-layer="2060" to-port="0" />
		<edge from-layer="2059" from-port="0" to-layer="2060" to-port="1" />
		<edge from-layer="2060" from-port="2" to-layer="2061" to-port="1" />
		<edge from-layer="2061" from-port="2" to-layer="2062" to-port="2" />
		<edge from-layer="2062" from-port="3" to-layer="2063" to-port="1" />
		<edge from-layer="2063" from-port="2" to-layer="2064" to-port="1" />
		<edge from-layer="2064" from-port="2" to-layer="2066" to-port="0" />
		<edge from-layer="2065" from-port="0" to-layer="2066" to-port="1" />
		<edge from-layer="2066" from-port="2" to-layer="2067" to-port="0" />
		<edge from-layer="2067" from-port="2" to-layer="2068" to-port="0" />
		<edge from-layer="2068" from-port="1" to-layer="2069" to-port="0" />
		<edge from-layer="2069" from-port="2" to-layer="2071" to-port="0" />
		<edge from-layer="2070" from-port="0" to-layer="2071" to-port="1" />
		<edge from-layer="2071" from-port="2" to-layer="2072" to-port="3" />
		<edge from-layer="2072" from-port="4" to-layer="2074" to-port="0" />
		<edge from-layer="2073" from-port="0" to-layer="2074" to-port="1" />
		<edge from-layer="2074" from-port="2" to-layer="2076" to-port="0" />
		<edge from-layer="2074" from-port="3" to-layer="2081" to-port="0" />
		<edge from-layer="2075" from-port="0" to-layer="2076" to-port="1" />
		<edge from-layer="2076" from-port="2" to-layer="2078" to-port="0" />
		<edge from-layer="2077" from-port="0" to-layer="2078" to-port="1" />
		<edge from-layer="2078" from-port="2" to-layer="2080" to-port="0" />
		<edge from-layer="2079" from-port="0" to-layer="2080" to-port="1" />
		<edge from-layer="2079" from-port="0" to-layer="2081" to-port="1" />
		<edge from-layer="2080" from-port="2" to-layer="2082" to-port="0" />
		<edge from-layer="2081" from-port="2" to-layer="2082" to-port="1" />
		<edge from-layer="2082" from-port="2" to-layer="2084" to-port="0" />
		<edge from-layer="2083" from-port="0" to-layer="2084" to-port="1" />
		<edge from-layer="2084" from-port="2" to-layer="2085" to-port="0" />
	</edges>
</net>
